node {
  name: "global_step"
  op: "Variable"
  attr {
    key: "_output_shapes"
    value {
      list {
        shape {
        }
      }
    }
  }
  attr {
    key: "container"
    value {
      s: ""
    }
  }
  attr {
    key: "dtype"
    value {
      type: DT_INT64
    }
  }
  attr {
    key: "shape"
    value {
      shape {
      }
    }
  }
  attr {
    key: "shared_name"
    value {
      s: ""
    }
  }
}
node {
  name: "global_step/Initializer/zeros"
  op: "Const"
  attr {
    key: "_class"
    value {
      list {
        s: "loc:@global_step"
      }
    }
  }
  attr {
    key: "_output_shapes"
    value {
      list {
        shape {
        }
      }
    }
  }
  attr {
    key: "dtype"
    value {
      type: DT_INT64
    }
  }
  attr {
    key: "value"
    value {
      tensor {
        dtype: DT_INT64
        tensor_shape {
        }
        int64_val: 0
      }
    }
  }
}
node {
  name: "global_step/Assign"
  op: "Assign"
  input: "global_step"
  input: "global_step/Initializer/zeros"
  attr {
    key: "T"
    value {
      type: DT_INT64
    }
  }
  attr {
    key: "_class"
    value {
      list {
        s: "loc:@global_step"
      }
    }
  }
  attr {
    key: "_output_shapes"
    value {
      list {
        shape {
        }
      }
    }
  }
  attr {
    key: "use_locking"
    value {
      b: true
    }
  }
  attr {
    key: "validate_shape"
    value {
      b: true
    }
  }
}
node {
  name: "global_step/read"
  op: "Identity"
  input: "global_step"
  attr {
    key: "T"
    value {
      type: DT_INT64
    }
  }
  attr {
    key: "_class"
    value {
      list {
        s: "loc:@global_step"
      }
    }
  }
  attr {
    key: "_output_shapes"
    value {
      list {
        shape {
        }
      }
    }
  }
}
node {
  name: "input"
  op: "Placeholder"
  attr {
    key: "_output_shapes"
    value {
      list {
        shape {
          dim {
            size: -1
          }
          dim {
            size: 5
          }
          dim {
            size: 2
          }
        }
      }
    }
  }
  attr {
    key: "dtype"
    value {
      type: DT_FLOAT
    }
  }
  attr {
    key: "shape"
    value {
      shape {
      }
    }
  }
}
node {
  name: "output"
  op: "Placeholder"
  attr {
    key: "_output_shapes"
    value {
      list {
        shape {
          dim {
            size: -1
          }
          dim {
            size: 2
          }
        }
      }
    }
  }
  attr {
    key: "dtype"
    value {
      type: DT_DOUBLE
    }
  }
  attr {
    key: "shape"
    value {
      shape {
      }
    }
  }
}
node {
  name: "unpack"
  op: "Unpack"
  input: "input"
  attr {
    key: "T"
    value {
      type: DT_FLOAT
    }
  }
  attr {
    key: "_output_shapes"
    value {
      list {
        shape {
          dim {
            size: -1
          }
          dim {
            size: 2
          }
        }
        shape {
          dim {
            size: -1
          }
          dim {
            size: 2
          }
        }
        shape {
          dim {
            size: -1
          }
          dim {
            size: 2
          }
        }
        shape {
          dim {
            size: -1
          }
          dim {
            size: 2
          }
        }
        shape {
          dim {
            size: -1
          }
          dim {
            size: 2
          }
        }
      }
    }
  }
  attr {
    key: "axis"
    value {
      i: 1
    }
  }
  attr {
    key: "num"
    value {
      i: 5
    }
  }
}
node {
  name: "RNN/Shape"
  op: "Shape"
  input: "unpack"
  attr {
    key: "T"
    value {
      type: DT_FLOAT
    }
  }
  attr {
    key: "_output_shapes"
    value {
      list {
        shape {
          dim {
            size: 2
          }
        }
      }
    }
  }
}
node {
  name: "RNN/Slice/begin"
  op: "Const"
  attr {
    key: "_output_shapes"
    value {
      list {
        shape {
          dim {
            size: 1
          }
        }
      }
    }
  }
  attr {
    key: "dtype"
    value {
      type: DT_INT32
    }
  }
  attr {
    key: "value"
    value {
      tensor {
        dtype: DT_INT32
        tensor_shape {
          dim {
            size: 1
          }
        }
        int_val: 0
      }
    }
  }
}
node {
  name: "RNN/Slice/size"
  op: "Const"
  attr {
    key: "_output_shapes"
    value {
      list {
        shape {
          dim {
            size: 1
          }
        }
      }
    }
  }
  attr {
    key: "dtype"
    value {
      type: DT_INT32
    }
  }
  attr {
    key: "value"
    value {
      tensor {
        dtype: DT_INT32
        tensor_shape {
          dim {
            size: 1
          }
        }
        int_val: 1
      }
    }
  }
}
node {
  name: "RNN/Slice"
  op: "Slice"
  input: "RNN/Shape"
  input: "RNN/Slice/begin"
  input: "RNN/Slice/size"
  attr {
    key: "Index"
    value {
      type: DT_INT32
    }
  }
  attr {
    key: "T"
    value {
      type: DT_INT32
    }
  }
  attr {
    key: "_output_shapes"
    value {
      list {
        shape {
          dim {
            size: 1
          }
        }
      }
    }
  }
}
node {
  name: "RNN/Squeeze"
  op: "Squeeze"
  input: "RNN/Slice"
  attr {
    key: "T"
    value {
      type: DT_INT32
    }
  }
  attr {
    key: "_output_shapes"
    value {
      list {
        shape {
        }
      }
    }
  }
  attr {
    key: "squeeze_dims"
    value {
      list {
        i: 0
      }
    }
  }
}
node {
  name: "RNN/pack/1"
  op: "Const"
  attr {
    key: "_output_shapes"
    value {
      list {
        shape {
        }
      }
    }
  }
  attr {
    key: "dtype"
    value {
      type: DT_INT32
    }
  }
  attr {
    key: "value"
    value {
      tensor {
        dtype: DT_INT32
        tensor_shape {
        }
        int_val: 5
      }
    }
  }
}
node {
  name: "RNN/pack"
  op: "Pack"
  input: "RNN/Squeeze"
  input: "RNN/pack/1"
  attr {
    key: "N"
    value {
      i: 2
    }
  }
  attr {
    key: "T"
    value {
      type: DT_INT32
    }
  }
  attr {
    key: "_output_shapes"
    value {
      list {
        shape {
          dim {
            size: 2
          }
        }
      }
    }
  }
  attr {
    key: "axis"
    value {
      i: 0
    }
  }
}
node {
  name: "RNN/zeros/Const"
  op: "Const"
  attr {
    key: "_output_shapes"
    value {
      list {
        shape {
        }
      }
    }
  }
  attr {
    key: "dtype"
    value {
      type: DT_FLOAT
    }
  }
  attr {
    key: "value"
    value {
      tensor {
        dtype: DT_FLOAT
        tensor_shape {
        }
        float_val: 0.0
      }
    }
  }
}
node {
  name: "RNN/zeros"
  op: "Fill"
  input: "RNN/pack"
  input: "RNN/zeros/Const"
  attr {
    key: "T"
    value {
      type: DT_FLOAT
    }
  }
  attr {
    key: "_output_shapes"
    value {
      list {
        shape {
          dim {
            size: -1
          }
          dim {
            size: 5
          }
        }
      }
    }
  }
}
node {
  name: "RNN/pack_1/1"
  op: "Const"
  attr {
    key: "_output_shapes"
    value {
      list {
        shape {
        }
      }
    }
  }
  attr {
    key: "dtype"
    value {
      type: DT_INT32
    }
  }
  attr {
    key: "value"
    value {
      tensor {
        dtype: DT_INT32
        tensor_shape {
        }
        int_val: 5
      }
    }
  }
}
node {
  name: "RNN/pack_1"
  op: "Pack"
  input: "RNN/Squeeze"
  input: "RNN/pack_1/1"
  attr {
    key: "N"
    value {
      i: 2
    }
  }
  attr {
    key: "T"
    value {
      type: DT_INT32
    }
  }
  attr {
    key: "_output_shapes"
    value {
      list {
        shape {
          dim {
            size: 2
          }
        }
      }
    }
  }
  attr {
    key: "axis"
    value {
      i: 0
    }
  }
}
node {
  name: "RNN/zeros_1/Const"
  op: "Const"
  attr {
    key: "_output_shapes"
    value {
      list {
        shape {
        }
      }
    }
  }
  attr {
    key: "dtype"
    value {
      type: DT_FLOAT
    }
  }
  attr {
    key: "value"
    value {
      tensor {
        dtype: DT_FLOAT
        tensor_shape {
        }
        float_val: 0.0
      }
    }
  }
}
node {
  name: "RNN/zeros_1"
  op: "Fill"
  input: "RNN/pack_1"
  input: "RNN/zeros_1/Const"
  attr {
    key: "T"
    value {
      type: DT_FLOAT
    }
  }
  attr {
    key: "_output_shapes"
    value {
      list {
        shape {
          dim {
            size: -1
          }
          dim {
            size: 5
          }
        }
      }
    }
  }
}
node {
  name: "RNN/pack_2/1"
  op: "Const"
  attr {
    key: "_output_shapes"
    value {
      list {
        shape {
        }
      }
    }
  }
  attr {
    key: "dtype"
    value {
      type: DT_INT32
    }
  }
  attr {
    key: "value"
    value {
      tensor {
        dtype: DT_INT32
        tensor_shape {
        }
        int_val: 2
      }
    }
  }
}
node {
  name: "RNN/pack_2"
  op: "Pack"
  input: "RNN/Squeeze"
  input: "RNN/pack_2/1"
  attr {
    key: "N"
    value {
      i: 2
    }
  }
  attr {
    key: "T"
    value {
      type: DT_INT32
    }
  }
  attr {
    key: "_output_shapes"
    value {
      list {
        shape {
          dim {
            size: 2
          }
        }
      }
    }
  }
  attr {
    key: "axis"
    value {
      i: 0
    }
  }
}
node {
  name: "RNN/zeros_2/Const"
  op: "Const"
  attr {
    key: "_output_shapes"
    value {
      list {
        shape {
        }
      }
    }
  }
  attr {
    key: "dtype"
    value {
      type: DT_FLOAT
    }
  }
  attr {
    key: "value"
    value {
      tensor {
        dtype: DT_FLOAT
        tensor_shape {
        }
        float_val: 0.0
      }
    }
  }
}
node {
  name: "RNN/zeros_2"
  op: "Fill"
  input: "RNN/pack_2"
  input: "RNN/zeros_2/Const"
  attr {
    key: "T"
    value {
      type: DT_FLOAT
    }
  }
  attr {
    key: "_output_shapes"
    value {
      list {
        shape {
          dim {
            size: -1
          }
          dim {
            size: 2
          }
        }
      }
    }
  }
}
node {
  name: "RNN/pack_3/1"
  op: "Const"
  attr {
    key: "_output_shapes"
    value {
      list {
        shape {
        }
      }
    }
  }
  attr {
    key: "dtype"
    value {
      type: DT_INT32
    }
  }
  attr {
    key: "value"
    value {
      tensor {
        dtype: DT_INT32
        tensor_shape {
        }
        int_val: 2
      }
    }
  }
}
node {
  name: "RNN/pack_3"
  op: "Pack"
  input: "RNN/Squeeze"
  input: "RNN/pack_3/1"
  attr {
    key: "N"
    value {
      i: 2
    }
  }
  attr {
    key: "T"
    value {
      type: DT_INT32
    }
  }
  attr {
    key: "_output_shapes"
    value {
      list {
        shape {
          dim {
            size: 2
          }
        }
      }
    }
  }
  attr {
    key: "axis"
    value {
      i: 0
    }
  }
}
node {
  name: "RNN/zeros_3/Const"
  op: "Const"
  attr {
    key: "_output_shapes"
    value {
      list {
        shape {
        }
      }
    }
  }
  attr {
    key: "dtype"
    value {
      type: DT_FLOAT
    }
  }
  attr {
    key: "value"
    value {
      tensor {
        dtype: DT_FLOAT
        tensor_shape {
        }
        float_val: 0.0
      }
    }
  }
}
node {
  name: "RNN/zeros_3"
  op: "Fill"
  input: "RNN/pack_3"
  input: "RNN/zeros_3/Const"
  attr {
    key: "T"
    value {
      type: DT_FLOAT
    }
  }
  attr {
    key: "_output_shapes"
    value {
      list {
        shape {
          dim {
            size: -1
          }
          dim {
            size: 2
          }
        }
      }
    }
  }
}
node {
  name: "RNN/MultiRNNCell/Cell0/BasicLSTMCell/Linear/Matrix"
  op: "Variable"
  attr {
    key: "_output_shapes"
    value {
      list {
        shape {
          dim {
            size: 7
          }
          dim {
            size: 20
          }
        }
      }
    }
  }
  attr {
    key: "container"
    value {
      s: ""
    }
  }
  attr {
    key: "dtype"
    value {
      type: DT_FLOAT
    }
  }
  attr {
    key: "shape"
    value {
      shape {
        dim {
          size: 7
        }
        dim {
          size: 20
        }
      }
    }
  }
  attr {
    key: "shared_name"
    value {
      s: ""
    }
  }
}
node {
  name: "RNN/MultiRNNCell/Cell0/BasicLSTMCell/Linear/Matrix/Initializer/random_uniform/shape"
  op: "Const"
  attr {
    key: "_class"
    value {
      list {
        s: "loc:@RNN/MultiRNNCell/Cell0/BasicLSTMCell/Linear/Matrix"
      }
    }
  }
  attr {
    key: "_output_shapes"
    value {
      list {
        shape {
          dim {
            size: 2
          }
        }
      }
    }
  }
  attr {
    key: "dtype"
    value {
      type: DT_INT32
    }
  }
  attr {
    key: "value"
    value {
      tensor {
        dtype: DT_INT32
        tensor_shape {
          dim {
            size: 2
          }
        }
        tensor_content: "\007\000\000\000\024\000\000\000"
      }
    }
  }
}
node {
  name: "RNN/MultiRNNCell/Cell0/BasicLSTMCell/Linear/Matrix/Initializer/random_uniform/min"
  op: "Const"
  attr {
    key: "_class"
    value {
      list {
        s: "loc:@RNN/MultiRNNCell/Cell0/BasicLSTMCell/Linear/Matrix"
      }
    }
  }
  attr {
    key: "_output_shapes"
    value {
      list {
        shape {
        }
      }
    }
  }
  attr {
    key: "dtype"
    value {
      type: DT_FLOAT
    }
  }
  attr {
    key: "value"
    value {
      tensor {
        dtype: DT_FLOAT
        tensor_shape {
        }
        float_val: -0.654653668404
      }
    }
  }
}
node {
  name: "RNN/MultiRNNCell/Cell0/BasicLSTMCell/Linear/Matrix/Initializer/random_uniform/max"
  op: "Const"
  attr {
    key: "_class"
    value {
      list {
        s: "loc:@RNN/MultiRNNCell/Cell0/BasicLSTMCell/Linear/Matrix"
      }
    }
  }
  attr {
    key: "_output_shapes"
    value {
      list {
        shape {
        }
      }
    }
  }
  attr {
    key: "dtype"
    value {
      type: DT_FLOAT
    }
  }
  attr {
    key: "value"
    value {
      tensor {
        dtype: DT_FLOAT
        tensor_shape {
        }
        float_val: 0.654653668404
      }
    }
  }
}
node {
  name: "RNN/MultiRNNCell/Cell0/BasicLSTMCell/Linear/Matrix/Initializer/random_uniform/RandomUniform"
  op: "RandomUniform"
  input: "RNN/MultiRNNCell/Cell0/BasicLSTMCell/Linear/Matrix/Initializer/random_uniform/shape"
  attr {
    key: "T"
    value {
      type: DT_INT32
    }
  }
  attr {
    key: "_class"
    value {
      list {
        s: "loc:@RNN/MultiRNNCell/Cell0/BasicLSTMCell/Linear/Matrix"
      }
    }
  }
  attr {
    key: "_output_shapes"
    value {
      list {
        shape {
          dim {
            size: 7
          }
          dim {
            size: 20
          }
        }
      }
    }
  }
  attr {
    key: "dtype"
    value {
      type: DT_FLOAT
    }
  }
  attr {
    key: "seed"
    value {
      i: 42
    }
  }
  attr {
    key: "seed2"
    value {
      i: 32
    }
  }
}
node {
  name: "RNN/MultiRNNCell/Cell0/BasicLSTMCell/Linear/Matrix/Initializer/random_uniform/sub"
  op: "Sub"
  input: "RNN/MultiRNNCell/Cell0/BasicLSTMCell/Linear/Matrix/Initializer/random_uniform/max"
  input: "RNN/MultiRNNCell/Cell0/BasicLSTMCell/Linear/Matrix/Initializer/random_uniform/min"
  attr {
    key: "T"
    value {
      type: DT_FLOAT
    }
  }
  attr {
    key: "_class"
    value {
      list {
        s: "loc:@RNN/MultiRNNCell/Cell0/BasicLSTMCell/Linear/Matrix"
      }
    }
  }
  attr {
    key: "_output_shapes"
    value {
      list {
        shape {
        }
      }
    }
  }
}
node {
  name: "RNN/MultiRNNCell/Cell0/BasicLSTMCell/Linear/Matrix/Initializer/random_uniform/mul"
  op: "Mul"
  input: "RNN/MultiRNNCell/Cell0/BasicLSTMCell/Linear/Matrix/Initializer/random_uniform/RandomUniform"
  input: "RNN/MultiRNNCell/Cell0/BasicLSTMCell/Linear/Matrix/Initializer/random_uniform/sub"
  attr {
    key: "T"
    value {
      type: DT_FLOAT
    }
  }
  attr {
    key: "_class"
    value {
      list {
        s: "loc:@RNN/MultiRNNCell/Cell0/BasicLSTMCell/Linear/Matrix"
      }
    }
  }
  attr {
    key: "_output_shapes"
    value {
      list {
        shape {
          dim {
            size: 7
          }
          dim {
            size: 20
          }
        }
      }
    }
  }
}
node {
  name: "RNN/MultiRNNCell/Cell0/BasicLSTMCell/Linear/Matrix/Initializer/random_uniform"
  op: "Add"
  input: "RNN/MultiRNNCell/Cell0/BasicLSTMCell/Linear/Matrix/Initializer/random_uniform/mul"
  input: "RNN/MultiRNNCell/Cell0/BasicLSTMCell/Linear/Matrix/Initializer/random_uniform/min"
  attr {
    key: "T"
    value {
      type: DT_FLOAT
    }
  }
  attr {
    key: "_class"
    value {
      list {
        s: "loc:@RNN/MultiRNNCell/Cell0/BasicLSTMCell/Linear/Matrix"
      }
    }
  }
  attr {
    key: "_output_shapes"
    value {
      list {
        shape {
          dim {
            size: 7
          }
          dim {
            size: 20
          }
        }
      }
    }
  }
}
node {
  name: "RNN/MultiRNNCell/Cell0/BasicLSTMCell/Linear/Matrix/Assign"
  op: "Assign"
  input: "RNN/MultiRNNCell/Cell0/BasicLSTMCell/Linear/Matrix"
  input: "RNN/MultiRNNCell/Cell0/BasicLSTMCell/Linear/Matrix/Initializer/random_uniform"
  attr {
    key: "T"
    value {
      type: DT_FLOAT
    }
  }
  attr {
    key: "_class"
    value {
      list {
        s: "loc:@RNN/MultiRNNCell/Cell0/BasicLSTMCell/Linear/Matrix"
      }
    }
  }
  attr {
    key: "_output_shapes"
    value {
      list {
        shape {
          dim {
            size: 7
          }
          dim {
            size: 20
          }
        }
      }
    }
  }
  attr {
    key: "use_locking"
    value {
      b: true
    }
  }
  attr {
    key: "validate_shape"
    value {
      b: true
    }
  }
}
node {
  name: "RNN/MultiRNNCell/Cell0/BasicLSTMCell/Linear/Matrix/read"
  op: "Identity"
  input: "RNN/MultiRNNCell/Cell0/BasicLSTMCell/Linear/Matrix"
  attr {
    key: "T"
    value {
      type: DT_FLOAT
    }
  }
  attr {
    key: "_output_shapes"
    value {
      list {
        shape {
          dim {
            size: 7
          }
          dim {
            size: 20
          }
        }
      }
    }
  }
}
node {
  name: "RNN/MultiRNNCell/Cell0/BasicLSTMCell/Linear/concat/concat_dim"
  op: "Const"
  attr {
    key: "_output_shapes"
    value {
      list {
        shape {
        }
      }
    }
  }
  attr {
    key: "dtype"
    value {
      type: DT_INT32
    }
  }
  attr {
    key: "value"
    value {
      tensor {
        dtype: DT_INT32
        tensor_shape {
        }
        int_val: 1
      }
    }
  }
}
node {
  name: "RNN/MultiRNNCell/Cell0/BasicLSTMCell/Linear/concat"
  op: "Concat"
  input: "RNN/MultiRNNCell/Cell0/BasicLSTMCell/Linear/concat/concat_dim"
  input: "unpack"
  input: "RNN/zeros_1"
  attr {
    key: "N"
    value {
      i: 2
    }
  }
  attr {
    key: "T"
    value {
      type: DT_FLOAT
    }
  }
  attr {
    key: "_output_shapes"
    value {
      list {
        shape {
          dim {
            size: -1
          }
          dim {
            size: 7
          }
        }
      }
    }
  }
}
node {
  name: "RNN/MultiRNNCell/Cell0/BasicLSTMCell/Linear/MatMul"
  op: "MatMul"
  input: "RNN/MultiRNNCell/Cell0/BasicLSTMCell/Linear/concat"
  input: "RNN/MultiRNNCell/Cell0/BasicLSTMCell/Linear/Matrix/read"
  attr {
    key: "T"
    value {
      type: DT_FLOAT
    }
  }
  attr {
    key: "_output_shapes"
    value {
      list {
        shape {
          dim {
            size: -1
          }
          dim {
            size: 20
          }
        }
      }
    }
  }
  attr {
    key: "transpose_a"
    value {
      b: false
    }
  }
  attr {
    key: "transpose_b"
    value {
      b: false
    }
  }
}
node {
  name: "RNN/MultiRNNCell/Cell0/BasicLSTMCell/Linear/Bias"
  op: "Variable"
  attr {
    key: "_output_shapes"
    value {
      list {
        shape {
          dim {
            size: 20
          }
        }
      }
    }
  }
  attr {
    key: "container"
    value {
      s: ""
    }
  }
  attr {
    key: "dtype"
    value {
      type: DT_FLOAT
    }
  }
  attr {
    key: "shape"
    value {
      shape {
        dim {
          size: 20
        }
      }
    }
  }
  attr {
    key: "shared_name"
    value {
      s: ""
    }
  }
}
node {
  name: "RNN/MultiRNNCell/Cell0/BasicLSTMCell/Linear/Bias/Initializer/Const"
  op: "Const"
  attr {
    key: "_class"
    value {
      list {
        s: "loc:@RNN/MultiRNNCell/Cell0/BasicLSTMCell/Linear/Bias"
      }
    }
  }
  attr {
    key: "_output_shapes"
    value {
      list {
        shape {
          dim {
            size: 20
          }
        }
      }
    }
  }
  attr {
    key: "dtype"
    value {
      type: DT_FLOAT
    }
  }
  attr {
    key: "value"
    value {
      tensor {
        dtype: DT_FLOAT
        tensor_shape {
          dim {
            size: 20
          }
        }
        float_val: 0.0
      }
    }
  }
}
node {
  name: "RNN/MultiRNNCell/Cell0/BasicLSTMCell/Linear/Bias/Assign"
  op: "Assign"
  input: "RNN/MultiRNNCell/Cell0/BasicLSTMCell/Linear/Bias"
  input: "RNN/MultiRNNCell/Cell0/BasicLSTMCell/Linear/Bias/Initializer/Const"
  attr {
    key: "T"
    value {
      type: DT_FLOAT
    }
  }
  attr {
    key: "_class"
    value {
      list {
        s: "loc:@RNN/MultiRNNCell/Cell0/BasicLSTMCell/Linear/Bias"
      }
    }
  }
  attr {
    key: "_output_shapes"
    value {
      list {
        shape {
          dim {
            size: 20
          }
        }
      }
    }
  }
  attr {
    key: "use_locking"
    value {
      b: true
    }
  }
  attr {
    key: "validate_shape"
    value {
      b: true
    }
  }
}
node {
  name: "RNN/MultiRNNCell/Cell0/BasicLSTMCell/Linear/Bias/read"
  op: "Identity"
  input: "RNN/MultiRNNCell/Cell0/BasicLSTMCell/Linear/Bias"
  attr {
    key: "T"
    value {
      type: DT_FLOAT
    }
  }
  attr {
    key: "_output_shapes"
    value {
      list {
        shape {
          dim {
            size: 20
          }
        }
      }
    }
  }
}
node {
  name: "RNN/MultiRNNCell/Cell0/BasicLSTMCell/add"
  op: "Add"
  input: "RNN/MultiRNNCell/Cell0/BasicLSTMCell/Linear/MatMul"
  input: "RNN/MultiRNNCell/Cell0/BasicLSTMCell/Linear/Bias/read"
  attr {
    key: "T"
    value {
      type: DT_FLOAT
    }
  }
  attr {
    key: "_output_shapes"
    value {
      list {
        shape {
          dim {
            size: -1
          }
          dim {
            size: 20
          }
        }
      }
    }
  }
}
node {
  name: "RNN/MultiRNNCell/Cell0/BasicLSTMCell/split/split_dim"
  op: "Const"
  attr {
    key: "_output_shapes"
    value {
      list {
        shape {
        }
      }
    }
  }
  attr {
    key: "dtype"
    value {
      type: DT_INT32
    }
  }
  attr {
    key: "value"
    value {
      tensor {
        dtype: DT_INT32
        tensor_shape {
        }
        int_val: 1
      }
    }
  }
}
node {
  name: "RNN/MultiRNNCell/Cell0/BasicLSTMCell/split"
  op: "Split"
  input: "RNN/MultiRNNCell/Cell0/BasicLSTMCell/split/split_dim"
  input: "RNN/MultiRNNCell/Cell0/BasicLSTMCell/add"
  attr {
    key: "T"
    value {
      type: DT_FLOAT
    }
  }
  attr {
    key: "_output_shapes"
    value {
      list {
        shape {
          dim {
            size: -1
          }
          dim {
            size: 5
          }
        }
        shape {
          dim {
            size: -1
          }
          dim {
            size: 5
          }
        }
        shape {
          dim {
            size: -1
          }
          dim {
            size: 5
          }
        }
        shape {
          dim {
            size: -1
          }
          dim {
            size: 5
          }
        }
      }
    }
  }
  attr {
    key: "num_split"
    value {
      i: 4
    }
  }
}
node {
  name: "RNN/MultiRNNCell/Cell0/BasicLSTMCell/add_1/y"
  op: "Const"
  attr {
    key: "_output_shapes"
    value {
      list {
        shape {
        }
      }
    }
  }
  attr {
    key: "dtype"
    value {
      type: DT_FLOAT
    }
  }
  attr {
    key: "value"
    value {
      tensor {
        dtype: DT_FLOAT
        tensor_shape {
        }
        float_val: 1.0
      }
    }
  }
}
node {
  name: "RNN/MultiRNNCell/Cell0/BasicLSTMCell/add_1"
  op: "Add"
  input: "RNN/MultiRNNCell/Cell0/BasicLSTMCell/split:2"
  input: "RNN/MultiRNNCell/Cell0/BasicLSTMCell/add_1/y"
  attr {
    key: "T"
    value {
      type: DT_FLOAT
    }
  }
  attr {
    key: "_output_shapes"
    value {
      list {
        shape {
          dim {
            size: -1
          }
          dim {
            size: 5
          }
        }
      }
    }
  }
}
node {
  name: "RNN/MultiRNNCell/Cell0/BasicLSTMCell/Sigmoid"
  op: "Sigmoid"
  input: "RNN/MultiRNNCell/Cell0/BasicLSTMCell/add_1"
  attr {
    key: "T"
    value {
      type: DT_FLOAT
    }
  }
  attr {
    key: "_output_shapes"
    value {
      list {
        shape {
          dim {
            size: -1
          }
          dim {
            size: 5
          }
        }
      }
    }
  }
}
node {
  name: "RNN/MultiRNNCell/Cell0/BasicLSTMCell/mul"
  op: "Mul"
  input: "RNN/zeros"
  input: "RNN/MultiRNNCell/Cell0/BasicLSTMCell/Sigmoid"
  attr {
    key: "T"
    value {
      type: DT_FLOAT
    }
  }
  attr {
    key: "_output_shapes"
    value {
      list {
        shape {
          dim {
            size: -1
          }
          dim {
            size: 5
          }
        }
      }
    }
  }
}
node {
  name: "RNN/MultiRNNCell/Cell0/BasicLSTMCell/Sigmoid_1"
  op: "Sigmoid"
  input: "RNN/MultiRNNCell/Cell0/BasicLSTMCell/split"
  attr {
    key: "T"
    value {
      type: DT_FLOAT
    }
  }
  attr {
    key: "_output_shapes"
    value {
      list {
        shape {
          dim {
            size: -1
          }
          dim {
            size: 5
          }
        }
      }
    }
  }
}
node {
  name: "RNN/MultiRNNCell/Cell0/BasicLSTMCell/Tanh"
  op: "Tanh"
  input: "RNN/MultiRNNCell/Cell0/BasicLSTMCell/split:1"
  attr {
    key: "T"
    value {
      type: DT_FLOAT
    }
  }
  attr {
    key: "_output_shapes"
    value {
      list {
        shape {
          dim {
            size: -1
          }
          dim {
            size: 5
          }
        }
      }
    }
  }
}
node {
  name: "RNN/MultiRNNCell/Cell0/BasicLSTMCell/mul_1"
  op: "Mul"
  input: "RNN/MultiRNNCell/Cell0/BasicLSTMCell/Sigmoid_1"
  input: "RNN/MultiRNNCell/Cell0/BasicLSTMCell/Tanh"
  attr {
    key: "T"
    value {
      type: DT_FLOAT
    }
  }
  attr {
    key: "_output_shapes"
    value {
      list {
        shape {
          dim {
            size: -1
          }
          dim {
            size: 5
          }
        }
      }
    }
  }
}
node {
  name: "RNN/MultiRNNCell/Cell0/BasicLSTMCell/add_2"
  op: "Add"
  input: "RNN/MultiRNNCell/Cell0/BasicLSTMCell/mul"
  input: "RNN/MultiRNNCell/Cell0/BasicLSTMCell/mul_1"
  attr {
    key: "T"
    value {
      type: DT_FLOAT
    }
  }
  attr {
    key: "_output_shapes"
    value {
      list {
        shape {
          dim {
            size: -1
          }
          dim {
            size: 5
          }
        }
      }
    }
  }
}
node {
  name: "RNN/MultiRNNCell/Cell0/BasicLSTMCell/Tanh_1"
  op: "Tanh"
  input: "RNN/MultiRNNCell/Cell0/BasicLSTMCell/add_2"
  attr {
    key: "T"
    value {
      type: DT_FLOAT
    }
  }
  attr {
    key: "_output_shapes"
    value {
      list {
        shape {
          dim {
            size: -1
          }
          dim {
            size: 5
          }
        }
      }
    }
  }
}
node {
  name: "RNN/MultiRNNCell/Cell0/BasicLSTMCell/Sigmoid_2"
  op: "Sigmoid"
  input: "RNN/MultiRNNCell/Cell0/BasicLSTMCell/split:3"
  attr {
    key: "T"
    value {
      type: DT_FLOAT
    }
  }
  attr {
    key: "_output_shapes"
    value {
      list {
        shape {
          dim {
            size: -1
          }
          dim {
            size: 5
          }
        }
      }
    }
  }
}
node {
  name: "RNN/MultiRNNCell/Cell0/BasicLSTMCell/mul_2"
  op: "Mul"
  input: "RNN/MultiRNNCell/Cell0/BasicLSTMCell/Tanh_1"
  input: "RNN/MultiRNNCell/Cell0/BasicLSTMCell/Sigmoid_2"
  attr {
    key: "T"
    value {
      type: DT_FLOAT
    }
  }
  attr {
    key: "_output_shapes"
    value {
      list {
        shape {
          dim {
            size: -1
          }
          dim {
            size: 5
          }
        }
      }
    }
  }
}
node {
  name: "RNN/MultiRNNCell/Cell1/BasicLSTMCell/Linear/Matrix"
  op: "Variable"
  attr {
    key: "_output_shapes"
    value {
      list {
        shape {
          dim {
            size: 7
          }
          dim {
            size: 8
          }
        }
      }
    }
  }
  attr {
    key: "container"
    value {
      s: ""
    }
  }
  attr {
    key: "dtype"
    value {
      type: DT_FLOAT
    }
  }
  attr {
    key: "shape"
    value {
      shape {
        dim {
          size: 7
        }
        dim {
          size: 8
        }
      }
    }
  }
  attr {
    key: "shared_name"
    value {
      s: ""
    }
  }
}
node {
  name: "RNN/MultiRNNCell/Cell1/BasicLSTMCell/Linear/Matrix/Initializer/random_uniform/shape"
  op: "Const"
  attr {
    key: "_class"
    value {
      list {
        s: "loc:@RNN/MultiRNNCell/Cell1/BasicLSTMCell/Linear/Matrix"
      }
    }
  }
  attr {
    key: "_output_shapes"
    value {
      list {
        shape {
          dim {
            size: 2
          }
        }
      }
    }
  }
  attr {
    key: "dtype"
    value {
      type: DT_INT32
    }
  }
  attr {
    key: "value"
    value {
      tensor {
        dtype: DT_INT32
        tensor_shape {
          dim {
            size: 2
          }
        }
        tensor_content: "\007\000\000\000\010\000\000\000"
      }
    }
  }
}
node {
  name: "RNN/MultiRNNCell/Cell1/BasicLSTMCell/Linear/Matrix/Initializer/random_uniform/min"
  op: "Const"
  attr {
    key: "_class"
    value {
      list {
        s: "loc:@RNN/MultiRNNCell/Cell1/BasicLSTMCell/Linear/Matrix"
      }
    }
  }
  attr {
    key: "_output_shapes"
    value {
      list {
        shape {
        }
      }
    }
  }
  attr {
    key: "dtype"
    value {
      type: DT_FLOAT
    }
  }
  attr {
    key: "value"
    value {
      tensor {
        dtype: DT_FLOAT
        tensor_shape {
        }
        float_val: -0.654653668404
      }
    }
  }
}
node {
  name: "RNN/MultiRNNCell/Cell1/BasicLSTMCell/Linear/Matrix/Initializer/random_uniform/max"
  op: "Const"
  attr {
    key: "_class"
    value {
      list {
        s: "loc:@RNN/MultiRNNCell/Cell1/BasicLSTMCell/Linear/Matrix"
      }
    }
  }
  attr {
    key: "_output_shapes"
    value {
      list {
        shape {
        }
      }
    }
  }
  attr {
    key: "dtype"
    value {
      type: DT_FLOAT
    }
  }
  attr {
    key: "value"
    value {
      tensor {
        dtype: DT_FLOAT
        tensor_shape {
        }
        float_val: 0.654653668404
      }
    }
  }
}
node {
  name: "RNN/MultiRNNCell/Cell1/BasicLSTMCell/Linear/Matrix/Initializer/random_uniform/RandomUniform"
  op: "RandomUniform"
  input: "RNN/MultiRNNCell/Cell1/BasicLSTMCell/Linear/Matrix/Initializer/random_uniform/shape"
  attr {
    key: "T"
    value {
      type: DT_INT32
    }
  }
  attr {
    key: "_class"
    value {
      list {
        s: "loc:@RNN/MultiRNNCell/Cell1/BasicLSTMCell/Linear/Matrix"
      }
    }
  }
  attr {
    key: "_output_shapes"
    value {
      list {
        shape {
          dim {
            size: 7
          }
          dim {
            size: 8
          }
        }
      }
    }
  }
  attr {
    key: "dtype"
    value {
      type: DT_FLOAT
    }
  }
  attr {
    key: "seed"
    value {
      i: 42
    }
  }
  attr {
    key: "seed2"
    value {
      i: 63
    }
  }
}
node {
  name: "RNN/MultiRNNCell/Cell1/BasicLSTMCell/Linear/Matrix/Initializer/random_uniform/sub"
  op: "Sub"
  input: "RNN/MultiRNNCell/Cell1/BasicLSTMCell/Linear/Matrix/Initializer/random_uniform/max"
  input: "RNN/MultiRNNCell/Cell1/BasicLSTMCell/Linear/Matrix/Initializer/random_uniform/min"
  attr {
    key: "T"
    value {
      type: DT_FLOAT
    }
  }
  attr {
    key: "_class"
    value {
      list {
        s: "loc:@RNN/MultiRNNCell/Cell1/BasicLSTMCell/Linear/Matrix"
      }
    }
  }
  attr {
    key: "_output_shapes"
    value {
      list {
        shape {
        }
      }
    }
  }
}
node {
  name: "RNN/MultiRNNCell/Cell1/BasicLSTMCell/Linear/Matrix/Initializer/random_uniform/mul"
  op: "Mul"
  input: "RNN/MultiRNNCell/Cell1/BasicLSTMCell/Linear/Matrix/Initializer/random_uniform/RandomUniform"
  input: "RNN/MultiRNNCell/Cell1/BasicLSTMCell/Linear/Matrix/Initializer/random_uniform/sub"
  attr {
    key: "T"
    value {
      type: DT_FLOAT
    }
  }
  attr {
    key: "_class"
    value {
      list {
        s: "loc:@RNN/MultiRNNCell/Cell1/BasicLSTMCell/Linear/Matrix"
      }
    }
  }
  attr {
    key: "_output_shapes"
    value {
      list {
        shape {
          dim {
            size: 7
          }
          dim {
            size: 8
          }
        }
      }
    }
  }
}
node {
  name: "RNN/MultiRNNCell/Cell1/BasicLSTMCell/Linear/Matrix/Initializer/random_uniform"
  op: "Add"
  input: "RNN/MultiRNNCell/Cell1/BasicLSTMCell/Linear/Matrix/Initializer/random_uniform/mul"
  input: "RNN/MultiRNNCell/Cell1/BasicLSTMCell/Linear/Matrix/Initializer/random_uniform/min"
  attr {
    key: "T"
    value {
      type: DT_FLOAT
    }
  }
  attr {
    key: "_class"
    value {
      list {
        s: "loc:@RNN/MultiRNNCell/Cell1/BasicLSTMCell/Linear/Matrix"
      }
    }
  }
  attr {
    key: "_output_shapes"
    value {
      list {
        shape {
          dim {
            size: 7
          }
          dim {
            size: 8
          }
        }
      }
    }
  }
}
node {
  name: "RNN/MultiRNNCell/Cell1/BasicLSTMCell/Linear/Matrix/Assign"
  op: "Assign"
  input: "RNN/MultiRNNCell/Cell1/BasicLSTMCell/Linear/Matrix"
  input: "RNN/MultiRNNCell/Cell1/BasicLSTMCell/Linear/Matrix/Initializer/random_uniform"
  attr {
    key: "T"
    value {
      type: DT_FLOAT
    }
  }
  attr {
    key: "_class"
    value {
      list {
        s: "loc:@RNN/MultiRNNCell/Cell1/BasicLSTMCell/Linear/Matrix"
      }
    }
  }
  attr {
    key: "_output_shapes"
    value {
      list {
        shape {
          dim {
            size: 7
          }
          dim {
            size: 8
          }
        }
      }
    }
  }
  attr {
    key: "use_locking"
    value {
      b: true
    }
  }
  attr {
    key: "validate_shape"
    value {
      b: true
    }
  }
}
node {
  name: "RNN/MultiRNNCell/Cell1/BasicLSTMCell/Linear/Matrix/read"
  op: "Identity"
  input: "RNN/MultiRNNCell/Cell1/BasicLSTMCell/Linear/Matrix"
  attr {
    key: "T"
    value {
      type: DT_FLOAT
    }
  }
  attr {
    key: "_output_shapes"
    value {
      list {
        shape {
          dim {
            size: 7
          }
          dim {
            size: 8
          }
        }
      }
    }
  }
}
node {
  name: "RNN/MultiRNNCell/Cell1/BasicLSTMCell/Linear/concat/concat_dim"
  op: "Const"
  attr {
    key: "_output_shapes"
    value {
      list {
        shape {
        }
      }
    }
  }
  attr {
    key: "dtype"
    value {
      type: DT_INT32
    }
  }
  attr {
    key: "value"
    value {
      tensor {
        dtype: DT_INT32
        tensor_shape {
        }
        int_val: 1
      }
    }
  }
}
node {
  name: "RNN/MultiRNNCell/Cell1/BasicLSTMCell/Linear/concat"
  op: "Concat"
  input: "RNN/MultiRNNCell/Cell1/BasicLSTMCell/Linear/concat/concat_dim"
  input: "RNN/MultiRNNCell/Cell0/BasicLSTMCell/mul_2"
  input: "RNN/zeros_3"
  attr {
    key: "N"
    value {
      i: 2
    }
  }
  attr {
    key: "T"
    value {
      type: DT_FLOAT
    }
  }
  attr {
    key: "_output_shapes"
    value {
      list {
        shape {
          dim {
            size: -1
          }
          dim {
            size: 7
          }
        }
      }
    }
  }
}
node {
  name: "RNN/MultiRNNCell/Cell1/BasicLSTMCell/Linear/MatMul"
  op: "MatMul"
  input: "RNN/MultiRNNCell/Cell1/BasicLSTMCell/Linear/concat"
  input: "RNN/MultiRNNCell/Cell1/BasicLSTMCell/Linear/Matrix/read"
  attr {
    key: "T"
    value {
      type: DT_FLOAT
    }
  }
  attr {
    key: "_output_shapes"
    value {
      list {
        shape {
          dim {
            size: -1
          }
          dim {
            size: 8
          }
        }
      }
    }
  }
  attr {
    key: "transpose_a"
    value {
      b: false
    }
  }
  attr {
    key: "transpose_b"
    value {
      b: false
    }
  }
}
node {
  name: "RNN/MultiRNNCell/Cell1/BasicLSTMCell/Linear/Bias"
  op: "Variable"
  attr {
    key: "_output_shapes"
    value {
      list {
        shape {
          dim {
            size: 8
          }
        }
      }
    }
  }
  attr {
    key: "container"
    value {
      s: ""
    }
  }
  attr {
    key: "dtype"
    value {
      type: DT_FLOAT
    }
  }
  attr {
    key: "shape"
    value {
      shape {
        dim {
          size: 8
        }
      }
    }
  }
  attr {
    key: "shared_name"
    value {
      s: ""
    }
  }
}
node {
  name: "RNN/MultiRNNCell/Cell1/BasicLSTMCell/Linear/Bias/Initializer/Const"
  op: "Const"
  attr {
    key: "_class"
    value {
      list {
        s: "loc:@RNN/MultiRNNCell/Cell1/BasicLSTMCell/Linear/Bias"
      }
    }
  }
  attr {
    key: "_output_shapes"
    value {
      list {
        shape {
          dim {
            size: 8
          }
        }
      }
    }
  }
  attr {
    key: "dtype"
    value {
      type: DT_FLOAT
    }
  }
  attr {
    key: "value"
    value {
      tensor {
        dtype: DT_FLOAT
        tensor_shape {
          dim {
            size: 8
          }
        }
        float_val: 0.0
      }
    }
  }
}
node {
  name: "RNN/MultiRNNCell/Cell1/BasicLSTMCell/Linear/Bias/Assign"
  op: "Assign"
  input: "RNN/MultiRNNCell/Cell1/BasicLSTMCell/Linear/Bias"
  input: "RNN/MultiRNNCell/Cell1/BasicLSTMCell/Linear/Bias/Initializer/Const"
  attr {
    key: "T"
    value {
      type: DT_FLOAT
    }
  }
  attr {
    key: "_class"
    value {
      list {
        s: "loc:@RNN/MultiRNNCell/Cell1/BasicLSTMCell/Linear/Bias"
      }
    }
  }
  attr {
    key: "_output_shapes"
    value {
      list {
        shape {
          dim {
            size: 8
          }
        }
      }
    }
  }
  attr {
    key: "use_locking"
    value {
      b: true
    }
  }
  attr {
    key: "validate_shape"
    value {
      b: true
    }
  }
}
node {
  name: "RNN/MultiRNNCell/Cell1/BasicLSTMCell/Linear/Bias/read"
  op: "Identity"
  input: "RNN/MultiRNNCell/Cell1/BasicLSTMCell/Linear/Bias"
  attr {
    key: "T"
    value {
      type: DT_FLOAT
    }
  }
  attr {
    key: "_output_shapes"
    value {
      list {
        shape {
          dim {
            size: 8
          }
        }
      }
    }
  }
}
node {
  name: "RNN/MultiRNNCell/Cell1/BasicLSTMCell/add"
  op: "Add"
  input: "RNN/MultiRNNCell/Cell1/BasicLSTMCell/Linear/MatMul"
  input: "RNN/MultiRNNCell/Cell1/BasicLSTMCell/Linear/Bias/read"
  attr {
    key: "T"
    value {
      type: DT_FLOAT
    }
  }
  attr {
    key: "_output_shapes"
    value {
      list {
        shape {
          dim {
            size: -1
          }
          dim {
            size: 8
          }
        }
      }
    }
  }
}
node {
  name: "RNN/MultiRNNCell/Cell1/BasicLSTMCell/split/split_dim"
  op: "Const"
  attr {
    key: "_output_shapes"
    value {
      list {
        shape {
        }
      }
    }
  }
  attr {
    key: "dtype"
    value {
      type: DT_INT32
    }
  }
  attr {
    key: "value"
    value {
      tensor {
        dtype: DT_INT32
        tensor_shape {
        }
        int_val: 1
      }
    }
  }
}
node {
  name: "RNN/MultiRNNCell/Cell1/BasicLSTMCell/split"
  op: "Split"
  input: "RNN/MultiRNNCell/Cell1/BasicLSTMCell/split/split_dim"
  input: "RNN/MultiRNNCell/Cell1/BasicLSTMCell/add"
  attr {
    key: "T"
    value {
      type: DT_FLOAT
    }
  }
  attr {
    key: "_output_shapes"
    value {
      list {
        shape {
          dim {
            size: -1
          }
          dim {
            size: 2
          }
        }
        shape {
          dim {
            size: -1
          }
          dim {
            size: 2
          }
        }
        shape {
          dim {
            size: -1
          }
          dim {
            size: 2
          }
        }
        shape {
          dim {
            size: -1
          }
          dim {
            size: 2
          }
        }
      }
    }
  }
  attr {
    key: "num_split"
    value {
      i: 4
    }
  }
}
node {
  name: "RNN/MultiRNNCell/Cell1/BasicLSTMCell/add_1/y"
  op: "Const"
  attr {
    key: "_output_shapes"
    value {
      list {
        shape {
        }
      }
    }
  }
  attr {
    key: "dtype"
    value {
      type: DT_FLOAT
    }
  }
  attr {
    key: "value"
    value {
      tensor {
        dtype: DT_FLOAT
        tensor_shape {
        }
        float_val: 1.0
      }
    }
  }
}
node {
  name: "RNN/MultiRNNCell/Cell1/BasicLSTMCell/add_1"
  op: "Add"
  input: "RNN/MultiRNNCell/Cell1/BasicLSTMCell/split:2"
  input: "RNN/MultiRNNCell/Cell1/BasicLSTMCell/add_1/y"
  attr {
    key: "T"
    value {
      type: DT_FLOAT
    }
  }
  attr {
    key: "_output_shapes"
    value {
      list {
        shape {
          dim {
            size: -1
          }
          dim {
            size: 2
          }
        }
      }
    }
  }
}
node {
  name: "RNN/MultiRNNCell/Cell1/BasicLSTMCell/Sigmoid"
  op: "Sigmoid"
  input: "RNN/MultiRNNCell/Cell1/BasicLSTMCell/add_1"
  attr {
    key: "T"
    value {
      type: DT_FLOAT
    }
  }
  attr {
    key: "_output_shapes"
    value {
      list {
        shape {
          dim {
            size: -1
          }
          dim {
            size: 2
          }
        }
      }
    }
  }
}
node {
  name: "RNN/MultiRNNCell/Cell1/BasicLSTMCell/mul"
  op: "Mul"
  input: "RNN/zeros_2"
  input: "RNN/MultiRNNCell/Cell1/BasicLSTMCell/Sigmoid"
  attr {
    key: "T"
    value {
      type: DT_FLOAT
    }
  }
  attr {
    key: "_output_shapes"
    value {
      list {
        shape {
          dim {
            size: -1
          }
          dim {
            size: 2
          }
        }
      }
    }
  }
}
node {
  name: "RNN/MultiRNNCell/Cell1/BasicLSTMCell/Sigmoid_1"
  op: "Sigmoid"
  input: "RNN/MultiRNNCell/Cell1/BasicLSTMCell/split"
  attr {
    key: "T"
    value {
      type: DT_FLOAT
    }
  }
  attr {
    key: "_output_shapes"
    value {
      list {
        shape {
          dim {
            size: -1
          }
          dim {
            size: 2
          }
        }
      }
    }
  }
}
node {
  name: "RNN/MultiRNNCell/Cell1/BasicLSTMCell/Tanh"
  op: "Tanh"
  input: "RNN/MultiRNNCell/Cell1/BasicLSTMCell/split:1"
  attr {
    key: "T"
    value {
      type: DT_FLOAT
    }
  }
  attr {
    key: "_output_shapes"
    value {
      list {
        shape {
          dim {
            size: -1
          }
          dim {
            size: 2
          }
        }
      }
    }
  }
}
node {
  name: "RNN/MultiRNNCell/Cell1/BasicLSTMCell/mul_1"
  op: "Mul"
  input: "RNN/MultiRNNCell/Cell1/BasicLSTMCell/Sigmoid_1"
  input: "RNN/MultiRNNCell/Cell1/BasicLSTMCell/Tanh"
  attr {
    key: "T"
    value {
      type: DT_FLOAT
    }
  }
  attr {
    key: "_output_shapes"
    value {
      list {
        shape {
          dim {
            size: -1
          }
          dim {
            size: 2
          }
        }
      }
    }
  }
}
node {
  name: "RNN/MultiRNNCell/Cell1/BasicLSTMCell/add_2"
  op: "Add"
  input: "RNN/MultiRNNCell/Cell1/BasicLSTMCell/mul"
  input: "RNN/MultiRNNCell/Cell1/BasicLSTMCell/mul_1"
  attr {
    key: "T"
    value {
      type: DT_FLOAT
    }
  }
  attr {
    key: "_output_shapes"
    value {
      list {
        shape {
          dim {
            size: -1
          }
          dim {
            size: 2
          }
        }
      }
    }
  }
}
node {
  name: "RNN/MultiRNNCell/Cell1/BasicLSTMCell/Tanh_1"
  op: "Tanh"
  input: "RNN/MultiRNNCell/Cell1/BasicLSTMCell/add_2"
  attr {
    key: "T"
    value {
      type: DT_FLOAT
    }
  }
  attr {
    key: "_output_shapes"
    value {
      list {
        shape {
          dim {
            size: -1
          }
          dim {
            size: 2
          }
        }
      }
    }
  }
}
node {
  name: "RNN/MultiRNNCell/Cell1/BasicLSTMCell/Sigmoid_2"
  op: "Sigmoid"
  input: "RNN/MultiRNNCell/Cell1/BasicLSTMCell/split:3"
  attr {
    key: "T"
    value {
      type: DT_FLOAT
    }
  }
  attr {
    key: "_output_shapes"
    value {
      list {
        shape {
          dim {
            size: -1
          }
          dim {
            size: 2
          }
        }
      }
    }
  }
}
node {
  name: "RNN/MultiRNNCell/Cell1/BasicLSTMCell/mul_2"
  op: "Mul"
  input: "RNN/MultiRNNCell/Cell1/BasicLSTMCell/Tanh_1"
  input: "RNN/MultiRNNCell/Cell1/BasicLSTMCell/Sigmoid_2"
  attr {
    key: "T"
    value {
      type: DT_FLOAT
    }
  }
  attr {
    key: "_output_shapes"
    value {
      list {
        shape {
          dim {
            size: -1
          }
          dim {
            size: 2
          }
        }
      }
    }
  }
}
node {
  name: "RNN/MultiRNNCell_1/Cell0/BasicLSTMCell/Linear/concat/concat_dim"
  op: "Const"
  attr {
    key: "_output_shapes"
    value {
      list {
        shape {
        }
      }
    }
  }
  attr {
    key: "dtype"
    value {
      type: DT_INT32
    }
  }
  attr {
    key: "value"
    value {
      tensor {
        dtype: DT_INT32
        tensor_shape {
        }
        int_val: 1
      }
    }
  }
}
node {
  name: "RNN/MultiRNNCell_1/Cell0/BasicLSTMCell/Linear/concat"
  op: "Concat"
  input: "RNN/MultiRNNCell_1/Cell0/BasicLSTMCell/Linear/concat/concat_dim"
  input: "unpack:1"
  input: "RNN/MultiRNNCell/Cell0/BasicLSTMCell/mul_2"
  attr {
    key: "N"
    value {
      i: 2
    }
  }
  attr {
    key: "T"
    value {
      type: DT_FLOAT
    }
  }
  attr {
    key: "_output_shapes"
    value {
      list {
        shape {
          dim {
            size: -1
          }
          dim {
            size: 7
          }
        }
      }
    }
  }
}
node {
  name: "RNN/MultiRNNCell_1/Cell0/BasicLSTMCell/Linear/MatMul"
  op: "MatMul"
  input: "RNN/MultiRNNCell_1/Cell0/BasicLSTMCell/Linear/concat"
  input: "RNN/MultiRNNCell/Cell0/BasicLSTMCell/Linear/Matrix/read"
  attr {
    key: "T"
    value {
      type: DT_FLOAT
    }
  }
  attr {
    key: "_output_shapes"
    value {
      list {
        shape {
          dim {
            size: -1
          }
          dim {
            size: 20
          }
        }
      }
    }
  }
  attr {
    key: "transpose_a"
    value {
      b: false
    }
  }
  attr {
    key: "transpose_b"
    value {
      b: false
    }
  }
}
node {
  name: "RNN/MultiRNNCell_1/Cell0/BasicLSTMCell/add"
  op: "Add"
  input: "RNN/MultiRNNCell_1/Cell0/BasicLSTMCell/Linear/MatMul"
  input: "RNN/MultiRNNCell/Cell0/BasicLSTMCell/Linear/Bias/read"
  attr {
    key: "T"
    value {
      type: DT_FLOAT
    }
  }
  attr {
    key: "_output_shapes"
    value {
      list {
        shape {
          dim {
            size: -1
          }
          dim {
            size: 20
          }
        }
      }
    }
  }
}
node {
  name: "RNN/MultiRNNCell_1/Cell0/BasicLSTMCell/split/split_dim"
  op: "Const"
  attr {
    key: "_output_shapes"
    value {
      list {
        shape {
        }
      }
    }
  }
  attr {
    key: "dtype"
    value {
      type: DT_INT32
    }
  }
  attr {
    key: "value"
    value {
      tensor {
        dtype: DT_INT32
        tensor_shape {
        }
        int_val: 1
      }
    }
  }
}
node {
  name: "RNN/MultiRNNCell_1/Cell0/BasicLSTMCell/split"
  op: "Split"
  input: "RNN/MultiRNNCell_1/Cell0/BasicLSTMCell/split/split_dim"
  input: "RNN/MultiRNNCell_1/Cell0/BasicLSTMCell/add"
  attr {
    key: "T"
    value {
      type: DT_FLOAT
    }
  }
  attr {
    key: "_output_shapes"
    value {
      list {
        shape {
          dim {
            size: -1
          }
          dim {
            size: 5
          }
        }
        shape {
          dim {
            size: -1
          }
          dim {
            size: 5
          }
        }
        shape {
          dim {
            size: -1
          }
          dim {
            size: 5
          }
        }
        shape {
          dim {
            size: -1
          }
          dim {
            size: 5
          }
        }
      }
    }
  }
  attr {
    key: "num_split"
    value {
      i: 4
    }
  }
}
node {
  name: "RNN/MultiRNNCell_1/Cell0/BasicLSTMCell/add_1/y"
  op: "Const"
  attr {
    key: "_output_shapes"
    value {
      list {
        shape {
        }
      }
    }
  }
  attr {
    key: "dtype"
    value {
      type: DT_FLOAT
    }
  }
  attr {
    key: "value"
    value {
      tensor {
        dtype: DT_FLOAT
        tensor_shape {
        }
        float_val: 1.0
      }
    }
  }
}
node {
  name: "RNN/MultiRNNCell_1/Cell0/BasicLSTMCell/add_1"
  op: "Add"
  input: "RNN/MultiRNNCell_1/Cell0/BasicLSTMCell/split:2"
  input: "RNN/MultiRNNCell_1/Cell0/BasicLSTMCell/add_1/y"
  attr {
    key: "T"
    value {
      type: DT_FLOAT
    }
  }
  attr {
    key: "_output_shapes"
    value {
      list {
        shape {
          dim {
            size: -1
          }
          dim {
            size: 5
          }
        }
      }
    }
  }
}
node {
  name: "RNN/MultiRNNCell_1/Cell0/BasicLSTMCell/Sigmoid"
  op: "Sigmoid"
  input: "RNN/MultiRNNCell_1/Cell0/BasicLSTMCell/add_1"
  attr {
    key: "T"
    value {
      type: DT_FLOAT
    }
  }
  attr {
    key: "_output_shapes"
    value {
      list {
        shape {
          dim {
            size: -1
          }
          dim {
            size: 5
          }
        }
      }
    }
  }
}
node {
  name: "RNN/MultiRNNCell_1/Cell0/BasicLSTMCell/mul"
  op: "Mul"
  input: "RNN/MultiRNNCell/Cell0/BasicLSTMCell/add_2"
  input: "RNN/MultiRNNCell_1/Cell0/BasicLSTMCell/Sigmoid"
  attr {
    key: "T"
    value {
      type: DT_FLOAT
    }
  }
  attr {
    key: "_output_shapes"
    value {
      list {
        shape {
          dim {
            size: -1
          }
          dim {
            size: 5
          }
        }
      }
    }
  }
}
node {
  name: "RNN/MultiRNNCell_1/Cell0/BasicLSTMCell/Sigmoid_1"
  op: "Sigmoid"
  input: "RNN/MultiRNNCell_1/Cell0/BasicLSTMCell/split"
  attr {
    key: "T"
    value {
      type: DT_FLOAT
    }
  }
  attr {
    key: "_output_shapes"
    value {
      list {
        shape {
          dim {
            size: -1
          }
          dim {
            size: 5
          }
        }
      }
    }
  }
}
node {
  name: "RNN/MultiRNNCell_1/Cell0/BasicLSTMCell/Tanh"
  op: "Tanh"
  input: "RNN/MultiRNNCell_1/Cell0/BasicLSTMCell/split:1"
  attr {
    key: "T"
    value {
      type: DT_FLOAT
    }
  }
  attr {
    key: "_output_shapes"
    value {
      list {
        shape {
          dim {
            size: -1
          }
          dim {
            size: 5
          }
        }
      }
    }
  }
}
node {
  name: "RNN/MultiRNNCell_1/Cell0/BasicLSTMCell/mul_1"
  op: "Mul"
  input: "RNN/MultiRNNCell_1/Cell0/BasicLSTMCell/Sigmoid_1"
  input: "RNN/MultiRNNCell_1/Cell0/BasicLSTMCell/Tanh"
  attr {
    key: "T"
    value {
      type: DT_FLOAT
    }
  }
  attr {
    key: "_output_shapes"
    value {
      list {
        shape {
          dim {
            size: -1
          }
          dim {
            size: 5
          }
        }
      }
    }
  }
}
node {
  name: "RNN/MultiRNNCell_1/Cell0/BasicLSTMCell/add_2"
  op: "Add"
  input: "RNN/MultiRNNCell_1/Cell0/BasicLSTMCell/mul"
  input: "RNN/MultiRNNCell_1/Cell0/BasicLSTMCell/mul_1"
  attr {
    key: "T"
    value {
      type: DT_FLOAT
    }
  }
  attr {
    key: "_output_shapes"
    value {
      list {
        shape {
          dim {
            size: -1
          }
          dim {
            size: 5
          }
        }
      }
    }
  }
}
node {
  name: "RNN/MultiRNNCell_1/Cell0/BasicLSTMCell/Tanh_1"
  op: "Tanh"
  input: "RNN/MultiRNNCell_1/Cell0/BasicLSTMCell/add_2"
  attr {
    key: "T"
    value {
      type: DT_FLOAT
    }
  }
  attr {
    key: "_output_shapes"
    value {
      list {
        shape {
          dim {
            size: -1
          }
          dim {
            size: 5
          }
        }
      }
    }
  }
}
node {
  name: "RNN/MultiRNNCell_1/Cell0/BasicLSTMCell/Sigmoid_2"
  op: "Sigmoid"
  input: "RNN/MultiRNNCell_1/Cell0/BasicLSTMCell/split:3"
  attr {
    key: "T"
    value {
      type: DT_FLOAT
    }
  }
  attr {
    key: "_output_shapes"
    value {
      list {
        shape {
          dim {
            size: -1
          }
          dim {
            size: 5
          }
        }
      }
    }
  }
}
node {
  name: "RNN/MultiRNNCell_1/Cell0/BasicLSTMCell/mul_2"
  op: "Mul"
  input: "RNN/MultiRNNCell_1/Cell0/BasicLSTMCell/Tanh_1"
  input: "RNN/MultiRNNCell_1/Cell0/BasicLSTMCell/Sigmoid_2"
  attr {
    key: "T"
    value {
      type: DT_FLOAT
    }
  }
  attr {
    key: "_output_shapes"
    value {
      list {
        shape {
          dim {
            size: -1
          }
          dim {
            size: 5
          }
        }
      }
    }
  }
}
node {
  name: "RNN/MultiRNNCell_1/Cell1/BasicLSTMCell/Linear/concat/concat_dim"
  op: "Const"
  attr {
    key: "_output_shapes"
    value {
      list {
        shape {
        }
      }
    }
  }
  attr {
    key: "dtype"
    value {
      type: DT_INT32
    }
  }
  attr {
    key: "value"
    value {
      tensor {
        dtype: DT_INT32
        tensor_shape {
        }
        int_val: 1
      }
    }
  }
}
node {
  name: "RNN/MultiRNNCell_1/Cell1/BasicLSTMCell/Linear/concat"
  op: "Concat"
  input: "RNN/MultiRNNCell_1/Cell1/BasicLSTMCell/Linear/concat/concat_dim"
  input: "RNN/MultiRNNCell_1/Cell0/BasicLSTMCell/mul_2"
  input: "RNN/MultiRNNCell/Cell1/BasicLSTMCell/mul_2"
  attr {
    key: "N"
    value {
      i: 2
    }
  }
  attr {
    key: "T"
    value {
      type: DT_FLOAT
    }
  }
  attr {
    key: "_output_shapes"
    value {
      list {
        shape {
          dim {
            size: -1
          }
          dim {
            size: 7
          }
        }
      }
    }
  }
}
node {
  name: "RNN/MultiRNNCell_1/Cell1/BasicLSTMCell/Linear/MatMul"
  op: "MatMul"
  input: "RNN/MultiRNNCell_1/Cell1/BasicLSTMCell/Linear/concat"
  input: "RNN/MultiRNNCell/Cell1/BasicLSTMCell/Linear/Matrix/read"
  attr {
    key: "T"
    value {
      type: DT_FLOAT
    }
  }
  attr {
    key: "_output_shapes"
    value {
      list {
        shape {
          dim {
            size: -1
          }
          dim {
            size: 8
          }
        }
      }
    }
  }
  attr {
    key: "transpose_a"
    value {
      b: false
    }
  }
  attr {
    key: "transpose_b"
    value {
      b: false
    }
  }
}
node {
  name: "RNN/MultiRNNCell_1/Cell1/BasicLSTMCell/add"
  op: "Add"
  input: "RNN/MultiRNNCell_1/Cell1/BasicLSTMCell/Linear/MatMul"
  input: "RNN/MultiRNNCell/Cell1/BasicLSTMCell/Linear/Bias/read"
  attr {
    key: "T"
    value {
      type: DT_FLOAT
    }
  }
  attr {
    key: "_output_shapes"
    value {
      list {
        shape {
          dim {
            size: -1
          }
          dim {
            size: 8
          }
        }
      }
    }
  }
}
node {
  name: "RNN/MultiRNNCell_1/Cell1/BasicLSTMCell/split/split_dim"
  op: "Const"
  attr {
    key: "_output_shapes"
    value {
      list {
        shape {
        }
      }
    }
  }
  attr {
    key: "dtype"
    value {
      type: DT_INT32
    }
  }
  attr {
    key: "value"
    value {
      tensor {
        dtype: DT_INT32
        tensor_shape {
        }
        int_val: 1
      }
    }
  }
}
node {
  name: "RNN/MultiRNNCell_1/Cell1/BasicLSTMCell/split"
  op: "Split"
  input: "RNN/MultiRNNCell_1/Cell1/BasicLSTMCell/split/split_dim"
  input: "RNN/MultiRNNCell_1/Cell1/BasicLSTMCell/add"
  attr {
    key: "T"
    value {
      type: DT_FLOAT
    }
  }
  attr {
    key: "_output_shapes"
    value {
      list {
        shape {
          dim {
            size: -1
          }
          dim {
            size: 2
          }
        }
        shape {
          dim {
            size: -1
          }
          dim {
            size: 2
          }
        }
        shape {
          dim {
            size: -1
          }
          dim {
            size: 2
          }
        }
        shape {
          dim {
            size: -1
          }
          dim {
            size: 2
          }
        }
      }
    }
  }
  attr {
    key: "num_split"
    value {
      i: 4
    }
  }
}
node {
  name: "RNN/MultiRNNCell_1/Cell1/BasicLSTMCell/add_1/y"
  op: "Const"
  attr {
    key: "_output_shapes"
    value {
      list {
        shape {
        }
      }
    }
  }
  attr {
    key: "dtype"
    value {
      type: DT_FLOAT
    }
  }
  attr {
    key: "value"
    value {
      tensor {
        dtype: DT_FLOAT
        tensor_shape {
        }
        float_val: 1.0
      }
    }
  }
}
node {
  name: "RNN/MultiRNNCell_1/Cell1/BasicLSTMCell/add_1"
  op: "Add"
  input: "RNN/MultiRNNCell_1/Cell1/BasicLSTMCell/split:2"
  input: "RNN/MultiRNNCell_1/Cell1/BasicLSTMCell/add_1/y"
  attr {
    key: "T"
    value {
      type: DT_FLOAT
    }
  }
  attr {
    key: "_output_shapes"
    value {
      list {
        shape {
          dim {
            size: -1
          }
          dim {
            size: 2
          }
        }
      }
    }
  }
}
node {
  name: "RNN/MultiRNNCell_1/Cell1/BasicLSTMCell/Sigmoid"
  op: "Sigmoid"
  input: "RNN/MultiRNNCell_1/Cell1/BasicLSTMCell/add_1"
  attr {
    key: "T"
    value {
      type: DT_FLOAT
    }
  }
  attr {
    key: "_output_shapes"
    value {
      list {
        shape {
          dim {
            size: -1
          }
          dim {
            size: 2
          }
        }
      }
    }
  }
}
node {
  name: "RNN/MultiRNNCell_1/Cell1/BasicLSTMCell/mul"
  op: "Mul"
  input: "RNN/MultiRNNCell/Cell1/BasicLSTMCell/add_2"
  input: "RNN/MultiRNNCell_1/Cell1/BasicLSTMCell/Sigmoid"
  attr {
    key: "T"
    value {
      type: DT_FLOAT
    }
  }
  attr {
    key: "_output_shapes"
    value {
      list {
        shape {
          dim {
            size: -1
          }
          dim {
            size: 2
          }
        }
      }
    }
  }
}
node {
  name: "RNN/MultiRNNCell_1/Cell1/BasicLSTMCell/Sigmoid_1"
  op: "Sigmoid"
  input: "RNN/MultiRNNCell_1/Cell1/BasicLSTMCell/split"
  attr {
    key: "T"
    value {
      type: DT_FLOAT
    }
  }
  attr {
    key: "_output_shapes"
    value {
      list {
        shape {
          dim {
            size: -1
          }
          dim {
            size: 2
          }
        }
      }
    }
  }
}
node {
  name: "RNN/MultiRNNCell_1/Cell1/BasicLSTMCell/Tanh"
  op: "Tanh"
  input: "RNN/MultiRNNCell_1/Cell1/BasicLSTMCell/split:1"
  attr {
    key: "T"
    value {
      type: DT_FLOAT
    }
  }
  attr {
    key: "_output_shapes"
    value {
      list {
        shape {
          dim {
            size: -1
          }
          dim {
            size: 2
          }
        }
      }
    }
  }
}
node {
  name: "RNN/MultiRNNCell_1/Cell1/BasicLSTMCell/mul_1"
  op: "Mul"
  input: "RNN/MultiRNNCell_1/Cell1/BasicLSTMCell/Sigmoid_1"
  input: "RNN/MultiRNNCell_1/Cell1/BasicLSTMCell/Tanh"
  attr {
    key: "T"
    value {
      type: DT_FLOAT
    }
  }
  attr {
    key: "_output_shapes"
    value {
      list {
        shape {
          dim {
            size: -1
          }
          dim {
            size: 2
          }
        }
      }
    }
  }
}
node {
  name: "RNN/MultiRNNCell_1/Cell1/BasicLSTMCell/add_2"
  op: "Add"
  input: "RNN/MultiRNNCell_1/Cell1/BasicLSTMCell/mul"
  input: "RNN/MultiRNNCell_1/Cell1/BasicLSTMCell/mul_1"
  attr {
    key: "T"
    value {
      type: DT_FLOAT
    }
  }
  attr {
    key: "_output_shapes"
    value {
      list {
        shape {
          dim {
            size: -1
          }
          dim {
            size: 2
          }
        }
      }
    }
  }
}
node {
  name: "RNN/MultiRNNCell_1/Cell1/BasicLSTMCell/Tanh_1"
  op: "Tanh"
  input: "RNN/MultiRNNCell_1/Cell1/BasicLSTMCell/add_2"
  attr {
    key: "T"
    value {
      type: DT_FLOAT
    }
  }
  attr {
    key: "_output_shapes"
    value {
      list {
        shape {
          dim {
            size: -1
          }
          dim {
            size: 2
          }
        }
      }
    }
  }
}
node {
  name: "RNN/MultiRNNCell_1/Cell1/BasicLSTMCell/Sigmoid_2"
  op: "Sigmoid"
  input: "RNN/MultiRNNCell_1/Cell1/BasicLSTMCell/split:3"
  attr {
    key: "T"
    value {
      type: DT_FLOAT
    }
  }
  attr {
    key: "_output_shapes"
    value {
      list {
        shape {
          dim {
            size: -1
          }
          dim {
            size: 2
          }
        }
      }
    }
  }
}
node {
  name: "RNN/MultiRNNCell_1/Cell1/BasicLSTMCell/mul_2"
  op: "Mul"
  input: "RNN/MultiRNNCell_1/Cell1/BasicLSTMCell/Tanh_1"
  input: "RNN/MultiRNNCell_1/Cell1/BasicLSTMCell/Sigmoid_2"
  attr {
    key: "T"
    value {
      type: DT_FLOAT
    }
  }
  attr {
    key: "_output_shapes"
    value {
      list {
        shape {
          dim {
            size: -1
          }
          dim {
            size: 2
          }
        }
      }
    }
  }
}
node {
  name: "RNN/MultiRNNCell_2/Cell0/BasicLSTMCell/Linear/concat/concat_dim"
  op: "Const"
  attr {
    key: "_output_shapes"
    value {
      list {
        shape {
        }
      }
    }
  }
  attr {
    key: "dtype"
    value {
      type: DT_INT32
    }
  }
  attr {
    key: "value"
    value {
      tensor {
        dtype: DT_INT32
        tensor_shape {
        }
        int_val: 1
      }
    }
  }
}
node {
  name: "RNN/MultiRNNCell_2/Cell0/BasicLSTMCell/Linear/concat"
  op: "Concat"
  input: "RNN/MultiRNNCell_2/Cell0/BasicLSTMCell/Linear/concat/concat_dim"
  input: "unpack:2"
  input: "RNN/MultiRNNCell_1/Cell0/BasicLSTMCell/mul_2"
  attr {
    key: "N"
    value {
      i: 2
    }
  }
  attr {
    key: "T"
    value {
      type: DT_FLOAT
    }
  }
  attr {
    key: "_output_shapes"
    value {
      list {
        shape {
          dim {
            size: -1
          }
          dim {
            size: 7
          }
        }
      }
    }
  }
}
node {
  name: "RNN/MultiRNNCell_2/Cell0/BasicLSTMCell/Linear/MatMul"
  op: "MatMul"
  input: "RNN/MultiRNNCell_2/Cell0/BasicLSTMCell/Linear/concat"
  input: "RNN/MultiRNNCell/Cell0/BasicLSTMCell/Linear/Matrix/read"
  attr {
    key: "T"
    value {
      type: DT_FLOAT
    }
  }
  attr {
    key: "_output_shapes"
    value {
      list {
        shape {
          dim {
            size: -1
          }
          dim {
            size: 20
          }
        }
      }
    }
  }
  attr {
    key: "transpose_a"
    value {
      b: false
    }
  }
  attr {
    key: "transpose_b"
    value {
      b: false
    }
  }
}
node {
  name: "RNN/MultiRNNCell_2/Cell0/BasicLSTMCell/add"
  op: "Add"
  input: "RNN/MultiRNNCell_2/Cell0/BasicLSTMCell/Linear/MatMul"
  input: "RNN/MultiRNNCell/Cell0/BasicLSTMCell/Linear/Bias/read"
  attr {
    key: "T"
    value {
      type: DT_FLOAT
    }
  }
  attr {
    key: "_output_shapes"
    value {
      list {
        shape {
          dim {
            size: -1
          }
          dim {
            size: 20
          }
        }
      }
    }
  }
}
node {
  name: "RNN/MultiRNNCell_2/Cell0/BasicLSTMCell/split/split_dim"
  op: "Const"
  attr {
    key: "_output_shapes"
    value {
      list {
        shape {
        }
      }
    }
  }
  attr {
    key: "dtype"
    value {
      type: DT_INT32
    }
  }
  attr {
    key: "value"
    value {
      tensor {
        dtype: DT_INT32
        tensor_shape {
        }
        int_val: 1
      }
    }
  }
}
node {
  name: "RNN/MultiRNNCell_2/Cell0/BasicLSTMCell/split"
  op: "Split"
  input: "RNN/MultiRNNCell_2/Cell0/BasicLSTMCell/split/split_dim"
  input: "RNN/MultiRNNCell_2/Cell0/BasicLSTMCell/add"
  attr {
    key: "T"
    value {
      type: DT_FLOAT
    }
  }
  attr {
    key: "_output_shapes"
    value {
      list {
        shape {
          dim {
            size: -1
          }
          dim {
            size: 5
          }
        }
        shape {
          dim {
            size: -1
          }
          dim {
            size: 5
          }
        }
        shape {
          dim {
            size: -1
          }
          dim {
            size: 5
          }
        }
        shape {
          dim {
            size: -1
          }
          dim {
            size: 5
          }
        }
      }
    }
  }
  attr {
    key: "num_split"
    value {
      i: 4
    }
  }
}
node {
  name: "RNN/MultiRNNCell_2/Cell0/BasicLSTMCell/add_1/y"
  op: "Const"
  attr {
    key: "_output_shapes"
    value {
      list {
        shape {
        }
      }
    }
  }
  attr {
    key: "dtype"
    value {
      type: DT_FLOAT
    }
  }
  attr {
    key: "value"
    value {
      tensor {
        dtype: DT_FLOAT
        tensor_shape {
        }
        float_val: 1.0
      }
    }
  }
}
node {
  name: "RNN/MultiRNNCell_2/Cell0/BasicLSTMCell/add_1"
  op: "Add"
  input: "RNN/MultiRNNCell_2/Cell0/BasicLSTMCell/split:2"
  input: "RNN/MultiRNNCell_2/Cell0/BasicLSTMCell/add_1/y"
  attr {
    key: "T"
    value {
      type: DT_FLOAT
    }
  }
  attr {
    key: "_output_shapes"
    value {
      list {
        shape {
          dim {
            size: -1
          }
          dim {
            size: 5
          }
        }
      }
    }
  }
}
node {
  name: "RNN/MultiRNNCell_2/Cell0/BasicLSTMCell/Sigmoid"
  op: "Sigmoid"
  input: "RNN/MultiRNNCell_2/Cell0/BasicLSTMCell/add_1"
  attr {
    key: "T"
    value {
      type: DT_FLOAT
    }
  }
  attr {
    key: "_output_shapes"
    value {
      list {
        shape {
          dim {
            size: -1
          }
          dim {
            size: 5
          }
        }
      }
    }
  }
}
node {
  name: "RNN/MultiRNNCell_2/Cell0/BasicLSTMCell/mul"
  op: "Mul"
  input: "RNN/MultiRNNCell_1/Cell0/BasicLSTMCell/add_2"
  input: "RNN/MultiRNNCell_2/Cell0/BasicLSTMCell/Sigmoid"
  attr {
    key: "T"
    value {
      type: DT_FLOAT
    }
  }
  attr {
    key: "_output_shapes"
    value {
      list {
        shape {
          dim {
            size: -1
          }
          dim {
            size: 5
          }
        }
      }
    }
  }
}
node {
  name: "RNN/MultiRNNCell_2/Cell0/BasicLSTMCell/Sigmoid_1"
  op: "Sigmoid"
  input: "RNN/MultiRNNCell_2/Cell0/BasicLSTMCell/split"
  attr {
    key: "T"
    value {
      type: DT_FLOAT
    }
  }
  attr {
    key: "_output_shapes"
    value {
      list {
        shape {
          dim {
            size: -1
          }
          dim {
            size: 5
          }
        }
      }
    }
  }
}
node {
  name: "RNN/MultiRNNCell_2/Cell0/BasicLSTMCell/Tanh"
  op: "Tanh"
  input: "RNN/MultiRNNCell_2/Cell0/BasicLSTMCell/split:1"
  attr {
    key: "T"
    value {
      type: DT_FLOAT
    }
  }
  attr {
    key: "_output_shapes"
    value {
      list {
        shape {
          dim {
            size: -1
          }
          dim {
            size: 5
          }
        }
      }
    }
  }
}
node {
  name: "RNN/MultiRNNCell_2/Cell0/BasicLSTMCell/mul_1"
  op: "Mul"
  input: "RNN/MultiRNNCell_2/Cell0/BasicLSTMCell/Sigmoid_1"
  input: "RNN/MultiRNNCell_2/Cell0/BasicLSTMCell/Tanh"
  attr {
    key: "T"
    value {
      type: DT_FLOAT
    }
  }
  attr {
    key: "_output_shapes"
    value {
      list {
        shape {
          dim {
            size: -1
          }
          dim {
            size: 5
          }
        }
      }
    }
  }
}
node {
  name: "RNN/MultiRNNCell_2/Cell0/BasicLSTMCell/add_2"
  op: "Add"
  input: "RNN/MultiRNNCell_2/Cell0/BasicLSTMCell/mul"
  input: "RNN/MultiRNNCell_2/Cell0/BasicLSTMCell/mul_1"
  attr {
    key: "T"
    value {
      type: DT_FLOAT
    }
  }
  attr {
    key: "_output_shapes"
    value {
      list {
        shape {
          dim {
            size: -1
          }
          dim {
            size: 5
          }
        }
      }
    }
  }
}
node {
  name: "RNN/MultiRNNCell_2/Cell0/BasicLSTMCell/Tanh_1"
  op: "Tanh"
  input: "RNN/MultiRNNCell_2/Cell0/BasicLSTMCell/add_2"
  attr {
    key: "T"
    value {
      type: DT_FLOAT
    }
  }
  attr {
    key: "_output_shapes"
    value {
      list {
        shape {
          dim {
            size: -1
          }
          dim {
            size: 5
          }
        }
      }
    }
  }
}
node {
  name: "RNN/MultiRNNCell_2/Cell0/BasicLSTMCell/Sigmoid_2"
  op: "Sigmoid"
  input: "RNN/MultiRNNCell_2/Cell0/BasicLSTMCell/split:3"
  attr {
    key: "T"
    value {
      type: DT_FLOAT
    }
  }
  attr {
    key: "_output_shapes"
    value {
      list {
        shape {
          dim {
            size: -1
          }
          dim {
            size: 5
          }
        }
      }
    }
  }
}
node {
  name: "RNN/MultiRNNCell_2/Cell0/BasicLSTMCell/mul_2"
  op: "Mul"
  input: "RNN/MultiRNNCell_2/Cell0/BasicLSTMCell/Tanh_1"
  input: "RNN/MultiRNNCell_2/Cell0/BasicLSTMCell/Sigmoid_2"
  attr {
    key: "T"
    value {
      type: DT_FLOAT
    }
  }
  attr {
    key: "_output_shapes"
    value {
      list {
        shape {
          dim {
            size: -1
          }
          dim {
            size: 5
          }
        }
      }
    }
  }
}
node {
  name: "RNN/MultiRNNCell_2/Cell1/BasicLSTMCell/Linear/concat/concat_dim"
  op: "Const"
  attr {
    key: "_output_shapes"
    value {
      list {
        shape {
        }
      }
    }
  }
  attr {
    key: "dtype"
    value {
      type: DT_INT32
    }
  }
  attr {
    key: "value"
    value {
      tensor {
        dtype: DT_INT32
        tensor_shape {
        }
        int_val: 1
      }
    }
  }
}
node {
  name: "RNN/MultiRNNCell_2/Cell1/BasicLSTMCell/Linear/concat"
  op: "Concat"
  input: "RNN/MultiRNNCell_2/Cell1/BasicLSTMCell/Linear/concat/concat_dim"
  input: "RNN/MultiRNNCell_2/Cell0/BasicLSTMCell/mul_2"
  input: "RNN/MultiRNNCell_1/Cell1/BasicLSTMCell/mul_2"
  attr {
    key: "N"
    value {
      i: 2
    }
  }
  attr {
    key: "T"
    value {
      type: DT_FLOAT
    }
  }
  attr {
    key: "_output_shapes"
    value {
      list {
        shape {
          dim {
            size: -1
          }
          dim {
            size: 7
          }
        }
      }
    }
  }
}
node {
  name: "RNN/MultiRNNCell_2/Cell1/BasicLSTMCell/Linear/MatMul"
  op: "MatMul"
  input: "RNN/MultiRNNCell_2/Cell1/BasicLSTMCell/Linear/concat"
  input: "RNN/MultiRNNCell/Cell1/BasicLSTMCell/Linear/Matrix/read"
  attr {
    key: "T"
    value {
      type: DT_FLOAT
    }
  }
  attr {
    key: "_output_shapes"
    value {
      list {
        shape {
          dim {
            size: -1
          }
          dim {
            size: 8
          }
        }
      }
    }
  }
  attr {
    key: "transpose_a"
    value {
      b: false
    }
  }
  attr {
    key: "transpose_b"
    value {
      b: false
    }
  }
}
node {
  name: "RNN/MultiRNNCell_2/Cell1/BasicLSTMCell/add"
  op: "Add"
  input: "RNN/MultiRNNCell_2/Cell1/BasicLSTMCell/Linear/MatMul"
  input: "RNN/MultiRNNCell/Cell1/BasicLSTMCell/Linear/Bias/read"
  attr {
    key: "T"
    value {
      type: DT_FLOAT
    }
  }
  attr {
    key: "_output_shapes"
    value {
      list {
        shape {
          dim {
            size: -1
          }
          dim {
            size: 8
          }
        }
      }
    }
  }
}
node {
  name: "RNN/MultiRNNCell_2/Cell1/BasicLSTMCell/split/split_dim"
  op: "Const"
  attr {
    key: "_output_shapes"
    value {
      list {
        shape {
        }
      }
    }
  }
  attr {
    key: "dtype"
    value {
      type: DT_INT32
    }
  }
  attr {
    key: "value"
    value {
      tensor {
        dtype: DT_INT32
        tensor_shape {
        }
        int_val: 1
      }
    }
  }
}
node {
  name: "RNN/MultiRNNCell_2/Cell1/BasicLSTMCell/split"
  op: "Split"
  input: "RNN/MultiRNNCell_2/Cell1/BasicLSTMCell/split/split_dim"
  input: "RNN/MultiRNNCell_2/Cell1/BasicLSTMCell/add"
  attr {
    key: "T"
    value {
      type: DT_FLOAT
    }
  }
  attr {
    key: "_output_shapes"
    value {
      list {
        shape {
          dim {
            size: -1
          }
          dim {
            size: 2
          }
        }
        shape {
          dim {
            size: -1
          }
          dim {
            size: 2
          }
        }
        shape {
          dim {
            size: -1
          }
          dim {
            size: 2
          }
        }
        shape {
          dim {
            size: -1
          }
          dim {
            size: 2
          }
        }
      }
    }
  }
  attr {
    key: "num_split"
    value {
      i: 4
    }
  }
}
node {
  name: "RNN/MultiRNNCell_2/Cell1/BasicLSTMCell/add_1/y"
  op: "Const"
  attr {
    key: "_output_shapes"
    value {
      list {
        shape {
        }
      }
    }
  }
  attr {
    key: "dtype"
    value {
      type: DT_FLOAT
    }
  }
  attr {
    key: "value"
    value {
      tensor {
        dtype: DT_FLOAT
        tensor_shape {
        }
        float_val: 1.0
      }
    }
  }
}
node {
  name: "RNN/MultiRNNCell_2/Cell1/BasicLSTMCell/add_1"
  op: "Add"
  input: "RNN/MultiRNNCell_2/Cell1/BasicLSTMCell/split:2"
  input: "RNN/MultiRNNCell_2/Cell1/BasicLSTMCell/add_1/y"
  attr {
    key: "T"
    value {
      type: DT_FLOAT
    }
  }
  attr {
    key: "_output_shapes"
    value {
      list {
        shape {
          dim {
            size: -1
          }
          dim {
            size: 2
          }
        }
      }
    }
  }
}
node {
  name: "RNN/MultiRNNCell_2/Cell1/BasicLSTMCell/Sigmoid"
  op: "Sigmoid"
  input: "RNN/MultiRNNCell_2/Cell1/BasicLSTMCell/add_1"
  attr {
    key: "T"
    value {
      type: DT_FLOAT
    }
  }
  attr {
    key: "_output_shapes"
    value {
      list {
        shape {
          dim {
            size: -1
          }
          dim {
            size: 2
          }
        }
      }
    }
  }
}
node {
  name: "RNN/MultiRNNCell_2/Cell1/BasicLSTMCell/mul"
  op: "Mul"
  input: "RNN/MultiRNNCell_1/Cell1/BasicLSTMCell/add_2"
  input: "RNN/MultiRNNCell_2/Cell1/BasicLSTMCell/Sigmoid"
  attr {
    key: "T"
    value {
      type: DT_FLOAT
    }
  }
  attr {
    key: "_output_shapes"
    value {
      list {
        shape {
          dim {
            size: -1
          }
          dim {
            size: 2
          }
        }
      }
    }
  }
}
node {
  name: "RNN/MultiRNNCell_2/Cell1/BasicLSTMCell/Sigmoid_1"
  op: "Sigmoid"
  input: "RNN/MultiRNNCell_2/Cell1/BasicLSTMCell/split"
  attr {
    key: "T"
    value {
      type: DT_FLOAT
    }
  }
  attr {
    key: "_output_shapes"
    value {
      list {
        shape {
          dim {
            size: -1
          }
          dim {
            size: 2
          }
        }
      }
    }
  }
}
node {
  name: "RNN/MultiRNNCell_2/Cell1/BasicLSTMCell/Tanh"
  op: "Tanh"
  input: "RNN/MultiRNNCell_2/Cell1/BasicLSTMCell/split:1"
  attr {
    key: "T"
    value {
      type: DT_FLOAT
    }
  }
  attr {
    key: "_output_shapes"
    value {
      list {
        shape {
          dim {
            size: -1
          }
          dim {
            size: 2
          }
        }
      }
    }
  }
}
node {
  name: "RNN/MultiRNNCell_2/Cell1/BasicLSTMCell/mul_1"
  op: "Mul"
  input: "RNN/MultiRNNCell_2/Cell1/BasicLSTMCell/Sigmoid_1"
  input: "RNN/MultiRNNCell_2/Cell1/BasicLSTMCell/Tanh"
  attr {
    key: "T"
    value {
      type: DT_FLOAT
    }
  }
  attr {
    key: "_output_shapes"
    value {
      list {
        shape {
          dim {
            size: -1
          }
          dim {
            size: 2
          }
        }
      }
    }
  }
}
node {
  name: "RNN/MultiRNNCell_2/Cell1/BasicLSTMCell/add_2"
  op: "Add"
  input: "RNN/MultiRNNCell_2/Cell1/BasicLSTMCell/mul"
  input: "RNN/MultiRNNCell_2/Cell1/BasicLSTMCell/mul_1"
  attr {
    key: "T"
    value {
      type: DT_FLOAT
    }
  }
  attr {
    key: "_output_shapes"
    value {
      list {
        shape {
          dim {
            size: -1
          }
          dim {
            size: 2
          }
        }
      }
    }
  }
}
node {
  name: "RNN/MultiRNNCell_2/Cell1/BasicLSTMCell/Tanh_1"
  op: "Tanh"
  input: "RNN/MultiRNNCell_2/Cell1/BasicLSTMCell/add_2"
  attr {
    key: "T"
    value {
      type: DT_FLOAT
    }
  }
  attr {
    key: "_output_shapes"
    value {
      list {
        shape {
          dim {
            size: -1
          }
          dim {
            size: 2
          }
        }
      }
    }
  }
}
node {
  name: "RNN/MultiRNNCell_2/Cell1/BasicLSTMCell/Sigmoid_2"
  op: "Sigmoid"
  input: "RNN/MultiRNNCell_2/Cell1/BasicLSTMCell/split:3"
  attr {
    key: "T"
    value {
      type: DT_FLOAT
    }
  }
  attr {
    key: "_output_shapes"
    value {
      list {
        shape {
          dim {
            size: -1
          }
          dim {
            size: 2
          }
        }
      }
    }
  }
}
node {
  name: "RNN/MultiRNNCell_2/Cell1/BasicLSTMCell/mul_2"
  op: "Mul"
  input: "RNN/MultiRNNCell_2/Cell1/BasicLSTMCell/Tanh_1"
  input: "RNN/MultiRNNCell_2/Cell1/BasicLSTMCell/Sigmoid_2"
  attr {
    key: "T"
    value {
      type: DT_FLOAT
    }
  }
  attr {
    key: "_output_shapes"
    value {
      list {
        shape {
          dim {
            size: -1
          }
          dim {
            size: 2
          }
        }
      }
    }
  }
}
node {
  name: "RNN/MultiRNNCell_3/Cell0/BasicLSTMCell/Linear/concat/concat_dim"
  op: "Const"
  attr {
    key: "_output_shapes"
    value {
      list {
        shape {
        }
      }
    }
  }
  attr {
    key: "dtype"
    value {
      type: DT_INT32
    }
  }
  attr {
    key: "value"
    value {
      tensor {
        dtype: DT_INT32
        tensor_shape {
        }
        int_val: 1
      }
    }
  }
}
node {
  name: "RNN/MultiRNNCell_3/Cell0/BasicLSTMCell/Linear/concat"
  op: "Concat"
  input: "RNN/MultiRNNCell_3/Cell0/BasicLSTMCell/Linear/concat/concat_dim"
  input: "unpack:3"
  input: "RNN/MultiRNNCell_2/Cell0/BasicLSTMCell/mul_2"
  attr {
    key: "N"
    value {
      i: 2
    }
  }
  attr {
    key: "T"
    value {
      type: DT_FLOAT
    }
  }
  attr {
    key: "_output_shapes"
    value {
      list {
        shape {
          dim {
            size: -1
          }
          dim {
            size: 7
          }
        }
      }
    }
  }
}
node {
  name: "RNN/MultiRNNCell_3/Cell0/BasicLSTMCell/Linear/MatMul"
  op: "MatMul"
  input: "RNN/MultiRNNCell_3/Cell0/BasicLSTMCell/Linear/concat"
  input: "RNN/MultiRNNCell/Cell0/BasicLSTMCell/Linear/Matrix/read"
  attr {
    key: "T"
    value {
      type: DT_FLOAT
    }
  }
  attr {
    key: "_output_shapes"
    value {
      list {
        shape {
          dim {
            size: -1
          }
          dim {
            size: 20
          }
        }
      }
    }
  }
  attr {
    key: "transpose_a"
    value {
      b: false
    }
  }
  attr {
    key: "transpose_b"
    value {
      b: false
    }
  }
}
node {
  name: "RNN/MultiRNNCell_3/Cell0/BasicLSTMCell/add"
  op: "Add"
  input: "RNN/MultiRNNCell_3/Cell0/BasicLSTMCell/Linear/MatMul"
  input: "RNN/MultiRNNCell/Cell0/BasicLSTMCell/Linear/Bias/read"
  attr {
    key: "T"
    value {
      type: DT_FLOAT
    }
  }
  attr {
    key: "_output_shapes"
    value {
      list {
        shape {
          dim {
            size: -1
          }
          dim {
            size: 20
          }
        }
      }
    }
  }
}
node {
  name: "RNN/MultiRNNCell_3/Cell0/BasicLSTMCell/split/split_dim"
  op: "Const"
  attr {
    key: "_output_shapes"
    value {
      list {
        shape {
        }
      }
    }
  }
  attr {
    key: "dtype"
    value {
      type: DT_INT32
    }
  }
  attr {
    key: "value"
    value {
      tensor {
        dtype: DT_INT32
        tensor_shape {
        }
        int_val: 1
      }
    }
  }
}
node {
  name: "RNN/MultiRNNCell_3/Cell0/BasicLSTMCell/split"
  op: "Split"
  input: "RNN/MultiRNNCell_3/Cell0/BasicLSTMCell/split/split_dim"
  input: "RNN/MultiRNNCell_3/Cell0/BasicLSTMCell/add"
  attr {
    key: "T"
    value {
      type: DT_FLOAT
    }
  }
  attr {
    key: "_output_shapes"
    value {
      list {
        shape {
          dim {
            size: -1
          }
          dim {
            size: 5
          }
        }
        shape {
          dim {
            size: -1
          }
          dim {
            size: 5
          }
        }
        shape {
          dim {
            size: -1
          }
          dim {
            size: 5
          }
        }
        shape {
          dim {
            size: -1
          }
          dim {
            size: 5
          }
        }
      }
    }
  }
  attr {
    key: "num_split"
    value {
      i: 4
    }
  }
}
node {
  name: "RNN/MultiRNNCell_3/Cell0/BasicLSTMCell/add_1/y"
  op: "Const"
  attr {
    key: "_output_shapes"
    value {
      list {
        shape {
        }
      }
    }
  }
  attr {
    key: "dtype"
    value {
      type: DT_FLOAT
    }
  }
  attr {
    key: "value"
    value {
      tensor {
        dtype: DT_FLOAT
        tensor_shape {
        }
        float_val: 1.0
      }
    }
  }
}
node {
  name: "RNN/MultiRNNCell_3/Cell0/BasicLSTMCell/add_1"
  op: "Add"
  input: "RNN/MultiRNNCell_3/Cell0/BasicLSTMCell/split:2"
  input: "RNN/MultiRNNCell_3/Cell0/BasicLSTMCell/add_1/y"
  attr {
    key: "T"
    value {
      type: DT_FLOAT
    }
  }
  attr {
    key: "_output_shapes"
    value {
      list {
        shape {
          dim {
            size: -1
          }
          dim {
            size: 5
          }
        }
      }
    }
  }
}
node {
  name: "RNN/MultiRNNCell_3/Cell0/BasicLSTMCell/Sigmoid"
  op: "Sigmoid"
  input: "RNN/MultiRNNCell_3/Cell0/BasicLSTMCell/add_1"
  attr {
    key: "T"
    value {
      type: DT_FLOAT
    }
  }
  attr {
    key: "_output_shapes"
    value {
      list {
        shape {
          dim {
            size: -1
          }
          dim {
            size: 5
          }
        }
      }
    }
  }
}
node {
  name: "RNN/MultiRNNCell_3/Cell0/BasicLSTMCell/mul"
  op: "Mul"
  input: "RNN/MultiRNNCell_2/Cell0/BasicLSTMCell/add_2"
  input: "RNN/MultiRNNCell_3/Cell0/BasicLSTMCell/Sigmoid"
  attr {
    key: "T"
    value {
      type: DT_FLOAT
    }
  }
  attr {
    key: "_output_shapes"
    value {
      list {
        shape {
          dim {
            size: -1
          }
          dim {
            size: 5
          }
        }
      }
    }
  }
}
node {
  name: "RNN/MultiRNNCell_3/Cell0/BasicLSTMCell/Sigmoid_1"
  op: "Sigmoid"
  input: "RNN/MultiRNNCell_3/Cell0/BasicLSTMCell/split"
  attr {
    key: "T"
    value {
      type: DT_FLOAT
    }
  }
  attr {
    key: "_output_shapes"
    value {
      list {
        shape {
          dim {
            size: -1
          }
          dim {
            size: 5
          }
        }
      }
    }
  }
}
node {
  name: "RNN/MultiRNNCell_3/Cell0/BasicLSTMCell/Tanh"
  op: "Tanh"
  input: "RNN/MultiRNNCell_3/Cell0/BasicLSTMCell/split:1"
  attr {
    key: "T"
    value {
      type: DT_FLOAT
    }
  }
  attr {
    key: "_output_shapes"
    value {
      list {
        shape {
          dim {
            size: -1
          }
          dim {
            size: 5
          }
        }
      }
    }
  }
}
node {
  name: "RNN/MultiRNNCell_3/Cell0/BasicLSTMCell/mul_1"
  op: "Mul"
  input: "RNN/MultiRNNCell_3/Cell0/BasicLSTMCell/Sigmoid_1"
  input: "RNN/MultiRNNCell_3/Cell0/BasicLSTMCell/Tanh"
  attr {
    key: "T"
    value {
      type: DT_FLOAT
    }
  }
  attr {
    key: "_output_shapes"
    value {
      list {
        shape {
          dim {
            size: -1
          }
          dim {
            size: 5
          }
        }
      }
    }
  }
}
node {
  name: "RNN/MultiRNNCell_3/Cell0/BasicLSTMCell/add_2"
  op: "Add"
  input: "RNN/MultiRNNCell_3/Cell0/BasicLSTMCell/mul"
  input: "RNN/MultiRNNCell_3/Cell0/BasicLSTMCell/mul_1"
  attr {
    key: "T"
    value {
      type: DT_FLOAT
    }
  }
  attr {
    key: "_output_shapes"
    value {
      list {
        shape {
          dim {
            size: -1
          }
          dim {
            size: 5
          }
        }
      }
    }
  }
}
node {
  name: "RNN/MultiRNNCell_3/Cell0/BasicLSTMCell/Tanh_1"
  op: "Tanh"
  input: "RNN/MultiRNNCell_3/Cell0/BasicLSTMCell/add_2"
  attr {
    key: "T"
    value {
      type: DT_FLOAT
    }
  }
  attr {
    key: "_output_shapes"
    value {
      list {
        shape {
          dim {
            size: -1
          }
          dim {
            size: 5
          }
        }
      }
    }
  }
}
node {
  name: "RNN/MultiRNNCell_3/Cell0/BasicLSTMCell/Sigmoid_2"
  op: "Sigmoid"
  input: "RNN/MultiRNNCell_3/Cell0/BasicLSTMCell/split:3"
  attr {
    key: "T"
    value {
      type: DT_FLOAT
    }
  }
  attr {
    key: "_output_shapes"
    value {
      list {
        shape {
          dim {
            size: -1
          }
          dim {
            size: 5
          }
        }
      }
    }
  }
}
node {
  name: "RNN/MultiRNNCell_3/Cell0/BasicLSTMCell/mul_2"
  op: "Mul"
  input: "RNN/MultiRNNCell_3/Cell0/BasicLSTMCell/Tanh_1"
  input: "RNN/MultiRNNCell_3/Cell0/BasicLSTMCell/Sigmoid_2"
  attr {
    key: "T"
    value {
      type: DT_FLOAT
    }
  }
  attr {
    key: "_output_shapes"
    value {
      list {
        shape {
          dim {
            size: -1
          }
          dim {
            size: 5
          }
        }
      }
    }
  }
}
node {
  name: "RNN/MultiRNNCell_3/Cell1/BasicLSTMCell/Linear/concat/concat_dim"
  op: "Const"
  attr {
    key: "_output_shapes"
    value {
      list {
        shape {
        }
      }
    }
  }
  attr {
    key: "dtype"
    value {
      type: DT_INT32
    }
  }
  attr {
    key: "value"
    value {
      tensor {
        dtype: DT_INT32
        tensor_shape {
        }
        int_val: 1
      }
    }
  }
}
node {
  name: "RNN/MultiRNNCell_3/Cell1/BasicLSTMCell/Linear/concat"
  op: "Concat"
  input: "RNN/MultiRNNCell_3/Cell1/BasicLSTMCell/Linear/concat/concat_dim"
  input: "RNN/MultiRNNCell_3/Cell0/BasicLSTMCell/mul_2"
  input: "RNN/MultiRNNCell_2/Cell1/BasicLSTMCell/mul_2"
  attr {
    key: "N"
    value {
      i: 2
    }
  }
  attr {
    key: "T"
    value {
      type: DT_FLOAT
    }
  }
  attr {
    key: "_output_shapes"
    value {
      list {
        shape {
          dim {
            size: -1
          }
          dim {
            size: 7
          }
        }
      }
    }
  }
}
node {
  name: "RNN/MultiRNNCell_3/Cell1/BasicLSTMCell/Linear/MatMul"
  op: "MatMul"
  input: "RNN/MultiRNNCell_3/Cell1/BasicLSTMCell/Linear/concat"
  input: "RNN/MultiRNNCell/Cell1/BasicLSTMCell/Linear/Matrix/read"
  attr {
    key: "T"
    value {
      type: DT_FLOAT
    }
  }
  attr {
    key: "_output_shapes"
    value {
      list {
        shape {
          dim {
            size: -1
          }
          dim {
            size: 8
          }
        }
      }
    }
  }
  attr {
    key: "transpose_a"
    value {
      b: false
    }
  }
  attr {
    key: "transpose_b"
    value {
      b: false
    }
  }
}
node {
  name: "RNN/MultiRNNCell_3/Cell1/BasicLSTMCell/add"
  op: "Add"
  input: "RNN/MultiRNNCell_3/Cell1/BasicLSTMCell/Linear/MatMul"
  input: "RNN/MultiRNNCell/Cell1/BasicLSTMCell/Linear/Bias/read"
  attr {
    key: "T"
    value {
      type: DT_FLOAT
    }
  }
  attr {
    key: "_output_shapes"
    value {
      list {
        shape {
          dim {
            size: -1
          }
          dim {
            size: 8
          }
        }
      }
    }
  }
}
node {
  name: "RNN/MultiRNNCell_3/Cell1/BasicLSTMCell/split/split_dim"
  op: "Const"
  attr {
    key: "_output_shapes"
    value {
      list {
        shape {
        }
      }
    }
  }
  attr {
    key: "dtype"
    value {
      type: DT_INT32
    }
  }
  attr {
    key: "value"
    value {
      tensor {
        dtype: DT_INT32
        tensor_shape {
        }
        int_val: 1
      }
    }
  }
}
node {
  name: "RNN/MultiRNNCell_3/Cell1/BasicLSTMCell/split"
  op: "Split"
  input: "RNN/MultiRNNCell_3/Cell1/BasicLSTMCell/split/split_dim"
  input: "RNN/MultiRNNCell_3/Cell1/BasicLSTMCell/add"
  attr {
    key: "T"
    value {
      type: DT_FLOAT
    }
  }
  attr {
    key: "_output_shapes"
    value {
      list {
        shape {
          dim {
            size: -1
          }
          dim {
            size: 2
          }
        }
        shape {
          dim {
            size: -1
          }
          dim {
            size: 2
          }
        }
        shape {
          dim {
            size: -1
          }
          dim {
            size: 2
          }
        }
        shape {
          dim {
            size: -1
          }
          dim {
            size: 2
          }
        }
      }
    }
  }
  attr {
    key: "num_split"
    value {
      i: 4
    }
  }
}
node {
  name: "RNN/MultiRNNCell_3/Cell1/BasicLSTMCell/add_1/y"
  op: "Const"
  attr {
    key: "_output_shapes"
    value {
      list {
        shape {
        }
      }
    }
  }
  attr {
    key: "dtype"
    value {
      type: DT_FLOAT
    }
  }
  attr {
    key: "value"
    value {
      tensor {
        dtype: DT_FLOAT
        tensor_shape {
        }
        float_val: 1.0
      }
    }
  }
}
node {
  name: "RNN/MultiRNNCell_3/Cell1/BasicLSTMCell/add_1"
  op: "Add"
  input: "RNN/MultiRNNCell_3/Cell1/BasicLSTMCell/split:2"
  input: "RNN/MultiRNNCell_3/Cell1/BasicLSTMCell/add_1/y"
  attr {
    key: "T"
    value {
      type: DT_FLOAT
    }
  }
  attr {
    key: "_output_shapes"
    value {
      list {
        shape {
          dim {
            size: -1
          }
          dim {
            size: 2
          }
        }
      }
    }
  }
}
node {
  name: "RNN/MultiRNNCell_3/Cell1/BasicLSTMCell/Sigmoid"
  op: "Sigmoid"
  input: "RNN/MultiRNNCell_3/Cell1/BasicLSTMCell/add_1"
  attr {
    key: "T"
    value {
      type: DT_FLOAT
    }
  }
  attr {
    key: "_output_shapes"
    value {
      list {
        shape {
          dim {
            size: -1
          }
          dim {
            size: 2
          }
        }
      }
    }
  }
}
node {
  name: "RNN/MultiRNNCell_3/Cell1/BasicLSTMCell/mul"
  op: "Mul"
  input: "RNN/MultiRNNCell_2/Cell1/BasicLSTMCell/add_2"
  input: "RNN/MultiRNNCell_3/Cell1/BasicLSTMCell/Sigmoid"
  attr {
    key: "T"
    value {
      type: DT_FLOAT
    }
  }
  attr {
    key: "_output_shapes"
    value {
      list {
        shape {
          dim {
            size: -1
          }
          dim {
            size: 2
          }
        }
      }
    }
  }
}
node {
  name: "RNN/MultiRNNCell_3/Cell1/BasicLSTMCell/Sigmoid_1"
  op: "Sigmoid"
  input: "RNN/MultiRNNCell_3/Cell1/BasicLSTMCell/split"
  attr {
    key: "T"
    value {
      type: DT_FLOAT
    }
  }
  attr {
    key: "_output_shapes"
    value {
      list {
        shape {
          dim {
            size: -1
          }
          dim {
            size: 2
          }
        }
      }
    }
  }
}
node {
  name: "RNN/MultiRNNCell_3/Cell1/BasicLSTMCell/Tanh"
  op: "Tanh"
  input: "RNN/MultiRNNCell_3/Cell1/BasicLSTMCell/split:1"
  attr {
    key: "T"
    value {
      type: DT_FLOAT
    }
  }
  attr {
    key: "_output_shapes"
    value {
      list {
        shape {
          dim {
            size: -1
          }
          dim {
            size: 2
          }
        }
      }
    }
  }
}
node {
  name: "RNN/MultiRNNCell_3/Cell1/BasicLSTMCell/mul_1"
  op: "Mul"
  input: "RNN/MultiRNNCell_3/Cell1/BasicLSTMCell/Sigmoid_1"
  input: "RNN/MultiRNNCell_3/Cell1/BasicLSTMCell/Tanh"
  attr {
    key: "T"
    value {
      type: DT_FLOAT
    }
  }
  attr {
    key: "_output_shapes"
    value {
      list {
        shape {
          dim {
            size: -1
          }
          dim {
            size: 2
          }
        }
      }
    }
  }
}
node {
  name: "RNN/MultiRNNCell_3/Cell1/BasicLSTMCell/add_2"
  op: "Add"
  input: "RNN/MultiRNNCell_3/Cell1/BasicLSTMCell/mul"
  input: "RNN/MultiRNNCell_3/Cell1/BasicLSTMCell/mul_1"
  attr {
    key: "T"
    value {
      type: DT_FLOAT
    }
  }
  attr {
    key: "_output_shapes"
    value {
      list {
        shape {
          dim {
            size: -1
          }
          dim {
            size: 2
          }
        }
      }
    }
  }
}
node {
  name: "RNN/MultiRNNCell_3/Cell1/BasicLSTMCell/Tanh_1"
  op: "Tanh"
  input: "RNN/MultiRNNCell_3/Cell1/BasicLSTMCell/add_2"
  attr {
    key: "T"
    value {
      type: DT_FLOAT
    }
  }
  attr {
    key: "_output_shapes"
    value {
      list {
        shape {
          dim {
            size: -1
          }
          dim {
            size: 2
          }
        }
      }
    }
  }
}
node {
  name: "RNN/MultiRNNCell_3/Cell1/BasicLSTMCell/Sigmoid_2"
  op: "Sigmoid"
  input: "RNN/MultiRNNCell_3/Cell1/BasicLSTMCell/split:3"
  attr {
    key: "T"
    value {
      type: DT_FLOAT
    }
  }
  attr {
    key: "_output_shapes"
    value {
      list {
        shape {
          dim {
            size: -1
          }
          dim {
            size: 2
          }
        }
      }
    }
  }
}
node {
  name: "RNN/MultiRNNCell_3/Cell1/BasicLSTMCell/mul_2"
  op: "Mul"
  input: "RNN/MultiRNNCell_3/Cell1/BasicLSTMCell/Tanh_1"
  input: "RNN/MultiRNNCell_3/Cell1/BasicLSTMCell/Sigmoid_2"
  attr {
    key: "T"
    value {
      type: DT_FLOAT
    }
  }
  attr {
    key: "_output_shapes"
    value {
      list {
        shape {
          dim {
            size: -1
          }
          dim {
            size: 2
          }
        }
      }
    }
  }
}
node {
  name: "RNN/MultiRNNCell_4/Cell0/BasicLSTMCell/Linear/concat/concat_dim"
  op: "Const"
  attr {
    key: "_output_shapes"
    value {
      list {
        shape {
        }
      }
    }
  }
  attr {
    key: "dtype"
    value {
      type: DT_INT32
    }
  }
  attr {
    key: "value"
    value {
      tensor {
        dtype: DT_INT32
        tensor_shape {
        }
        int_val: 1
      }
    }
  }
}
node {
  name: "RNN/MultiRNNCell_4/Cell0/BasicLSTMCell/Linear/concat"
  op: "Concat"
  input: "RNN/MultiRNNCell_4/Cell0/BasicLSTMCell/Linear/concat/concat_dim"
  input: "unpack:4"
  input: "RNN/MultiRNNCell_3/Cell0/BasicLSTMCell/mul_2"
  attr {
    key: "N"
    value {
      i: 2
    }
  }
  attr {
    key: "T"
    value {
      type: DT_FLOAT
    }
  }
  attr {
    key: "_output_shapes"
    value {
      list {
        shape {
          dim {
            size: -1
          }
          dim {
            size: 7
          }
        }
      }
    }
  }
}
node {
  name: "RNN/MultiRNNCell_4/Cell0/BasicLSTMCell/Linear/MatMul"
  op: "MatMul"
  input: "RNN/MultiRNNCell_4/Cell0/BasicLSTMCell/Linear/concat"
  input: "RNN/MultiRNNCell/Cell0/BasicLSTMCell/Linear/Matrix/read"
  attr {
    key: "T"
    value {
      type: DT_FLOAT
    }
  }
  attr {
    key: "_output_shapes"
    value {
      list {
        shape {
          dim {
            size: -1
          }
          dim {
            size: 20
          }
        }
      }
    }
  }
  attr {
    key: "transpose_a"
    value {
      b: false
    }
  }
  attr {
    key: "transpose_b"
    value {
      b: false
    }
  }
}
node {
  name: "RNN/MultiRNNCell_4/Cell0/BasicLSTMCell/add"
  op: "Add"
  input: "RNN/MultiRNNCell_4/Cell0/BasicLSTMCell/Linear/MatMul"
  input: "RNN/MultiRNNCell/Cell0/BasicLSTMCell/Linear/Bias/read"
  attr {
    key: "T"
    value {
      type: DT_FLOAT
    }
  }
  attr {
    key: "_output_shapes"
    value {
      list {
        shape {
          dim {
            size: -1
          }
          dim {
            size: 20
          }
        }
      }
    }
  }
}
node {
  name: "RNN/MultiRNNCell_4/Cell0/BasicLSTMCell/split/split_dim"
  op: "Const"
  attr {
    key: "_output_shapes"
    value {
      list {
        shape {
        }
      }
    }
  }
  attr {
    key: "dtype"
    value {
      type: DT_INT32
    }
  }
  attr {
    key: "value"
    value {
      tensor {
        dtype: DT_INT32
        tensor_shape {
        }
        int_val: 1
      }
    }
  }
}
node {
  name: "RNN/MultiRNNCell_4/Cell0/BasicLSTMCell/split"
  op: "Split"
  input: "RNN/MultiRNNCell_4/Cell0/BasicLSTMCell/split/split_dim"
  input: "RNN/MultiRNNCell_4/Cell0/BasicLSTMCell/add"
  attr {
    key: "T"
    value {
      type: DT_FLOAT
    }
  }
  attr {
    key: "_output_shapes"
    value {
      list {
        shape {
          dim {
            size: -1
          }
          dim {
            size: 5
          }
        }
        shape {
          dim {
            size: -1
          }
          dim {
            size: 5
          }
        }
        shape {
          dim {
            size: -1
          }
          dim {
            size: 5
          }
        }
        shape {
          dim {
            size: -1
          }
          dim {
            size: 5
          }
        }
      }
    }
  }
  attr {
    key: "num_split"
    value {
      i: 4
    }
  }
}
node {
  name: "RNN/MultiRNNCell_4/Cell0/BasicLSTMCell/add_1/y"
  op: "Const"
  attr {
    key: "_output_shapes"
    value {
      list {
        shape {
        }
      }
    }
  }
  attr {
    key: "dtype"
    value {
      type: DT_FLOAT
    }
  }
  attr {
    key: "value"
    value {
      tensor {
        dtype: DT_FLOAT
        tensor_shape {
        }
        float_val: 1.0
      }
    }
  }
}
node {
  name: "RNN/MultiRNNCell_4/Cell0/BasicLSTMCell/add_1"
  op: "Add"
  input: "RNN/MultiRNNCell_4/Cell0/BasicLSTMCell/split:2"
  input: "RNN/MultiRNNCell_4/Cell0/BasicLSTMCell/add_1/y"
  attr {
    key: "T"
    value {
      type: DT_FLOAT
    }
  }
  attr {
    key: "_output_shapes"
    value {
      list {
        shape {
          dim {
            size: -1
          }
          dim {
            size: 5
          }
        }
      }
    }
  }
}
node {
  name: "RNN/MultiRNNCell_4/Cell0/BasicLSTMCell/Sigmoid"
  op: "Sigmoid"
  input: "RNN/MultiRNNCell_4/Cell0/BasicLSTMCell/add_1"
  attr {
    key: "T"
    value {
      type: DT_FLOAT
    }
  }
  attr {
    key: "_output_shapes"
    value {
      list {
        shape {
          dim {
            size: -1
          }
          dim {
            size: 5
          }
        }
      }
    }
  }
}
node {
  name: "RNN/MultiRNNCell_4/Cell0/BasicLSTMCell/mul"
  op: "Mul"
  input: "RNN/MultiRNNCell_3/Cell0/BasicLSTMCell/add_2"
  input: "RNN/MultiRNNCell_4/Cell0/BasicLSTMCell/Sigmoid"
  attr {
    key: "T"
    value {
      type: DT_FLOAT
    }
  }
  attr {
    key: "_output_shapes"
    value {
      list {
        shape {
          dim {
            size: -1
          }
          dim {
            size: 5
          }
        }
      }
    }
  }
}
node {
  name: "RNN/MultiRNNCell_4/Cell0/BasicLSTMCell/Sigmoid_1"
  op: "Sigmoid"
  input: "RNN/MultiRNNCell_4/Cell0/BasicLSTMCell/split"
  attr {
    key: "T"
    value {
      type: DT_FLOAT
    }
  }
  attr {
    key: "_output_shapes"
    value {
      list {
        shape {
          dim {
            size: -1
          }
          dim {
            size: 5
          }
        }
      }
    }
  }
}
node {
  name: "RNN/MultiRNNCell_4/Cell0/BasicLSTMCell/Tanh"
  op: "Tanh"
  input: "RNN/MultiRNNCell_4/Cell0/BasicLSTMCell/split:1"
  attr {
    key: "T"
    value {
      type: DT_FLOAT
    }
  }
  attr {
    key: "_output_shapes"
    value {
      list {
        shape {
          dim {
            size: -1
          }
          dim {
            size: 5
          }
        }
      }
    }
  }
}
node {
  name: "RNN/MultiRNNCell_4/Cell0/BasicLSTMCell/mul_1"
  op: "Mul"
  input: "RNN/MultiRNNCell_4/Cell0/BasicLSTMCell/Sigmoid_1"
  input: "RNN/MultiRNNCell_4/Cell0/BasicLSTMCell/Tanh"
  attr {
    key: "T"
    value {
      type: DT_FLOAT
    }
  }
  attr {
    key: "_output_shapes"
    value {
      list {
        shape {
          dim {
            size: -1
          }
          dim {
            size: 5
          }
        }
      }
    }
  }
}
node {
  name: "RNN/MultiRNNCell_4/Cell0/BasicLSTMCell/add_2"
  op: "Add"
  input: "RNN/MultiRNNCell_4/Cell0/BasicLSTMCell/mul"
  input: "RNN/MultiRNNCell_4/Cell0/BasicLSTMCell/mul_1"
  attr {
    key: "T"
    value {
      type: DT_FLOAT
    }
  }
  attr {
    key: "_output_shapes"
    value {
      list {
        shape {
          dim {
            size: -1
          }
          dim {
            size: 5
          }
        }
      }
    }
  }
}
node {
  name: "RNN/MultiRNNCell_4/Cell0/BasicLSTMCell/Tanh_1"
  op: "Tanh"
  input: "RNN/MultiRNNCell_4/Cell0/BasicLSTMCell/add_2"
  attr {
    key: "T"
    value {
      type: DT_FLOAT
    }
  }
  attr {
    key: "_output_shapes"
    value {
      list {
        shape {
          dim {
            size: -1
          }
          dim {
            size: 5
          }
        }
      }
    }
  }
}
node {
  name: "RNN/MultiRNNCell_4/Cell0/BasicLSTMCell/Sigmoid_2"
  op: "Sigmoid"
  input: "RNN/MultiRNNCell_4/Cell0/BasicLSTMCell/split:3"
  attr {
    key: "T"
    value {
      type: DT_FLOAT
    }
  }
  attr {
    key: "_output_shapes"
    value {
      list {
        shape {
          dim {
            size: -1
          }
          dim {
            size: 5
          }
        }
      }
    }
  }
}
node {
  name: "RNN/MultiRNNCell_4/Cell0/BasicLSTMCell/mul_2"
  op: "Mul"
  input: "RNN/MultiRNNCell_4/Cell0/BasicLSTMCell/Tanh_1"
  input: "RNN/MultiRNNCell_4/Cell0/BasicLSTMCell/Sigmoid_2"
  attr {
    key: "T"
    value {
      type: DT_FLOAT
    }
  }
  attr {
    key: "_output_shapes"
    value {
      list {
        shape {
          dim {
            size: -1
          }
          dim {
            size: 5
          }
        }
      }
    }
  }
}
node {
  name: "RNN/MultiRNNCell_4/Cell1/BasicLSTMCell/Linear/concat/concat_dim"
  op: "Const"
  attr {
    key: "_output_shapes"
    value {
      list {
        shape {
        }
      }
    }
  }
  attr {
    key: "dtype"
    value {
      type: DT_INT32
    }
  }
  attr {
    key: "value"
    value {
      tensor {
        dtype: DT_INT32
        tensor_shape {
        }
        int_val: 1
      }
    }
  }
}
node {
  name: "RNN/MultiRNNCell_4/Cell1/BasicLSTMCell/Linear/concat"
  op: "Concat"
  input: "RNN/MultiRNNCell_4/Cell1/BasicLSTMCell/Linear/concat/concat_dim"
  input: "RNN/MultiRNNCell_4/Cell0/BasicLSTMCell/mul_2"
  input: "RNN/MultiRNNCell_3/Cell1/BasicLSTMCell/mul_2"
  attr {
    key: "N"
    value {
      i: 2
    }
  }
  attr {
    key: "T"
    value {
      type: DT_FLOAT
    }
  }
  attr {
    key: "_output_shapes"
    value {
      list {
        shape {
          dim {
            size: -1
          }
          dim {
            size: 7
          }
        }
      }
    }
  }
}
node {
  name: "RNN/MultiRNNCell_4/Cell1/BasicLSTMCell/Linear/MatMul"
  op: "MatMul"
  input: "RNN/MultiRNNCell_4/Cell1/BasicLSTMCell/Linear/concat"
  input: "RNN/MultiRNNCell/Cell1/BasicLSTMCell/Linear/Matrix/read"
  attr {
    key: "T"
    value {
      type: DT_FLOAT
    }
  }
  attr {
    key: "_output_shapes"
    value {
      list {
        shape {
          dim {
            size: -1
          }
          dim {
            size: 8
          }
        }
      }
    }
  }
  attr {
    key: "transpose_a"
    value {
      b: false
    }
  }
  attr {
    key: "transpose_b"
    value {
      b: false
    }
  }
}
node {
  name: "RNN/MultiRNNCell_4/Cell1/BasicLSTMCell/add"
  op: "Add"
  input: "RNN/MultiRNNCell_4/Cell1/BasicLSTMCell/Linear/MatMul"
  input: "RNN/MultiRNNCell/Cell1/BasicLSTMCell/Linear/Bias/read"
  attr {
    key: "T"
    value {
      type: DT_FLOAT
    }
  }
  attr {
    key: "_output_shapes"
    value {
      list {
        shape {
          dim {
            size: -1
          }
          dim {
            size: 8
          }
        }
      }
    }
  }
}
node {
  name: "RNN/MultiRNNCell_4/Cell1/BasicLSTMCell/split/split_dim"
  op: "Const"
  attr {
    key: "_output_shapes"
    value {
      list {
        shape {
        }
      }
    }
  }
  attr {
    key: "dtype"
    value {
      type: DT_INT32
    }
  }
  attr {
    key: "value"
    value {
      tensor {
        dtype: DT_INT32
        tensor_shape {
        }
        int_val: 1
      }
    }
  }
}
node {
  name: "RNN/MultiRNNCell_4/Cell1/BasicLSTMCell/split"
  op: "Split"
  input: "RNN/MultiRNNCell_4/Cell1/BasicLSTMCell/split/split_dim"
  input: "RNN/MultiRNNCell_4/Cell1/BasicLSTMCell/add"
  attr {
    key: "T"
    value {
      type: DT_FLOAT
    }
  }
  attr {
    key: "_output_shapes"
    value {
      list {
        shape {
          dim {
            size: -1
          }
          dim {
            size: 2
          }
        }
        shape {
          dim {
            size: -1
          }
          dim {
            size: 2
          }
        }
        shape {
          dim {
            size: -1
          }
          dim {
            size: 2
          }
        }
        shape {
          dim {
            size: -1
          }
          dim {
            size: 2
          }
        }
      }
    }
  }
  attr {
    key: "num_split"
    value {
      i: 4
    }
  }
}
node {
  name: "RNN/MultiRNNCell_4/Cell1/BasicLSTMCell/add_1/y"
  op: "Const"
  attr {
    key: "_output_shapes"
    value {
      list {
        shape {
        }
      }
    }
  }
  attr {
    key: "dtype"
    value {
      type: DT_FLOAT
    }
  }
  attr {
    key: "value"
    value {
      tensor {
        dtype: DT_FLOAT
        tensor_shape {
        }
        float_val: 1.0
      }
    }
  }
}
node {
  name: "RNN/MultiRNNCell_4/Cell1/BasicLSTMCell/add_1"
  op: "Add"
  input: "RNN/MultiRNNCell_4/Cell1/BasicLSTMCell/split:2"
  input: "RNN/MultiRNNCell_4/Cell1/BasicLSTMCell/add_1/y"
  attr {
    key: "T"
    value {
      type: DT_FLOAT
    }
  }
  attr {
    key: "_output_shapes"
    value {
      list {
        shape {
          dim {
            size: -1
          }
          dim {
            size: 2
          }
        }
      }
    }
  }
}
node {
  name: "RNN/MultiRNNCell_4/Cell1/BasicLSTMCell/Sigmoid"
  op: "Sigmoid"
  input: "RNN/MultiRNNCell_4/Cell1/BasicLSTMCell/add_1"
  attr {
    key: "T"
    value {
      type: DT_FLOAT
    }
  }
  attr {
    key: "_output_shapes"
    value {
      list {
        shape {
          dim {
            size: -1
          }
          dim {
            size: 2
          }
        }
      }
    }
  }
}
node {
  name: "RNN/MultiRNNCell_4/Cell1/BasicLSTMCell/mul"
  op: "Mul"
  input: "RNN/MultiRNNCell_3/Cell1/BasicLSTMCell/add_2"
  input: "RNN/MultiRNNCell_4/Cell1/BasicLSTMCell/Sigmoid"
  attr {
    key: "T"
    value {
      type: DT_FLOAT
    }
  }
  attr {
    key: "_output_shapes"
    value {
      list {
        shape {
          dim {
            size: -1
          }
          dim {
            size: 2
          }
        }
      }
    }
  }
}
node {
  name: "RNN/MultiRNNCell_4/Cell1/BasicLSTMCell/Sigmoid_1"
  op: "Sigmoid"
  input: "RNN/MultiRNNCell_4/Cell1/BasicLSTMCell/split"
  attr {
    key: "T"
    value {
      type: DT_FLOAT
    }
  }
  attr {
    key: "_output_shapes"
    value {
      list {
        shape {
          dim {
            size: -1
          }
          dim {
            size: 2
          }
        }
      }
    }
  }
}
node {
  name: "RNN/MultiRNNCell_4/Cell1/BasicLSTMCell/Tanh"
  op: "Tanh"
  input: "RNN/MultiRNNCell_4/Cell1/BasicLSTMCell/split:1"
  attr {
    key: "T"
    value {
      type: DT_FLOAT
    }
  }
  attr {
    key: "_output_shapes"
    value {
      list {
        shape {
          dim {
            size: -1
          }
          dim {
            size: 2
          }
        }
      }
    }
  }
}
node {
  name: "RNN/MultiRNNCell_4/Cell1/BasicLSTMCell/mul_1"
  op: "Mul"
  input: "RNN/MultiRNNCell_4/Cell1/BasicLSTMCell/Sigmoid_1"
  input: "RNN/MultiRNNCell_4/Cell1/BasicLSTMCell/Tanh"
  attr {
    key: "T"
    value {
      type: DT_FLOAT
    }
  }
  attr {
    key: "_output_shapes"
    value {
      list {
        shape {
          dim {
            size: -1
          }
          dim {
            size: 2
          }
        }
      }
    }
  }
}
node {
  name: "RNN/MultiRNNCell_4/Cell1/BasicLSTMCell/add_2"
  op: "Add"
  input: "RNN/MultiRNNCell_4/Cell1/BasicLSTMCell/mul"
  input: "RNN/MultiRNNCell_4/Cell1/BasicLSTMCell/mul_1"
  attr {
    key: "T"
    value {
      type: DT_FLOAT
    }
  }
  attr {
    key: "_output_shapes"
    value {
      list {
        shape {
          dim {
            size: -1
          }
          dim {
            size: 2
          }
        }
      }
    }
  }
}
node {
  name: "RNN/MultiRNNCell_4/Cell1/BasicLSTMCell/Tanh_1"
  op: "Tanh"
  input: "RNN/MultiRNNCell_4/Cell1/BasicLSTMCell/add_2"
  attr {
    key: "T"
    value {
      type: DT_FLOAT
    }
  }
  attr {
    key: "_output_shapes"
    value {
      list {
        shape {
          dim {
            size: -1
          }
          dim {
            size: 2
          }
        }
      }
    }
  }
}
node {
  name: "RNN/MultiRNNCell_4/Cell1/BasicLSTMCell/Sigmoid_2"
  op: "Sigmoid"
  input: "RNN/MultiRNNCell_4/Cell1/BasicLSTMCell/split:3"
  attr {
    key: "T"
    value {
      type: DT_FLOAT
    }
  }
  attr {
    key: "_output_shapes"
    value {
      list {
        shape {
          dim {
            size: -1
          }
          dim {
            size: 2
          }
        }
      }
    }
  }
}
node {
  name: "RNN/MultiRNNCell_4/Cell1/BasicLSTMCell/mul_2"
  op: "Mul"
  input: "RNN/MultiRNNCell_4/Cell1/BasicLSTMCell/Tanh_1"
  input: "RNN/MultiRNNCell_4/Cell1/BasicLSTMCell/Sigmoid_2"
  attr {
    key: "T"
    value {
      type: DT_FLOAT
    }
  }
  attr {
    key: "_output_shapes"
    value {
      list {
        shape {
          dim {
            size: -1
          }
          dim {
            size: 2
          }
        }
      }
    }
  }
}
node {
  name: "dnn/layer0/fully_connected/weights"
  op: "Variable"
  attr {
    key: "_output_shapes"
    value {
      list {
        shape {
          dim {
            size: 2
          }
          dim {
            size: 1
          }
        }
      }
    }
  }
  attr {
    key: "container"
    value {
      s: ""
    }
  }
  attr {
    key: "dtype"
    value {
      type: DT_FLOAT
    }
  }
  attr {
    key: "shape"
    value {
      shape {
        dim {
          size: 2
        }
        dim {
          size: 1
        }
      }
    }
  }
  attr {
    key: "shared_name"
    value {
      s: ""
    }
  }
}
node {
  name: "dnn/layer0/fully_connected/weights/Initializer/random_uniform/shape"
  op: "Const"
  attr {
    key: "_class"
    value {
      list {
        s: "loc:@dnn/layer0/fully_connected/weights"
      }
    }
  }
  attr {
    key: "_output_shapes"
    value {
      list {
        shape {
          dim {
            size: 2
          }
        }
      }
    }
  }
  attr {
    key: "dtype"
    value {
      type: DT_INT32
    }
  }
  attr {
    key: "value"
    value {
      tensor {
        dtype: DT_INT32
        tensor_shape {
          dim {
            size: 2
          }
        }
        tensor_content: "\002\000\000\000\001\000\000\000"
      }
    }
  }
}
node {
  name: "dnn/layer0/fully_connected/weights/Initializer/random_uniform/min"
  op: "Const"
  attr {
    key: "_class"
    value {
      list {
        s: "loc:@dnn/layer0/fully_connected/weights"
      }
    }
  }
  attr {
    key: "_output_shapes"
    value {
      list {
        shape {
        }
      }
    }
  }
  attr {
    key: "dtype"
    value {
      type: DT_FLOAT
    }
  }
  attr {
    key: "value"
    value {
      tensor {
        dtype: DT_FLOAT
        tensor_shape {
        }
        float_val: -1.22474491596
      }
    }
  }
}
node {
  name: "dnn/layer0/fully_connected/weights/Initializer/random_uniform/max"
  op: "Const"
  attr {
    key: "_class"
    value {
      list {
        s: "loc:@dnn/layer0/fully_connected/weights"
      }
    }
  }
  attr {
    key: "_output_shapes"
    value {
      list {
        shape {
        }
      }
    }
  }
  attr {
    key: "dtype"
    value {
      type: DT_FLOAT
    }
  }
  attr {
    key: "value"
    value {
      tensor {
        dtype: DT_FLOAT
        tensor_shape {
        }
        float_val: 1.22474491596
      }
    }
  }
}
node {
  name: "dnn/layer0/fully_connected/weights/Initializer/random_uniform/RandomUniform"
  op: "RandomUniform"
  input: "dnn/layer0/fully_connected/weights/Initializer/random_uniform/shape"
  attr {
    key: "T"
    value {
      type: DT_INT32
    }
  }
  attr {
    key: "_class"
    value {
      list {
        s: "loc:@dnn/layer0/fully_connected/weights"
      }
    }
  }
  attr {
    key: "_output_shapes"
    value {
      list {
        shape {
          dim {
            size: 2
          }
          dim {
            size: 1
          }
        }
      }
    }
  }
  attr {
    key: "dtype"
    value {
      type: DT_FLOAT
    }
  }
  attr {
    key: "seed"
    value {
      i: 42
    }
  }
  attr {
    key: "seed2"
    value {
      i: 230
    }
  }
}
node {
  name: "dnn/layer0/fully_connected/weights/Initializer/random_uniform/sub"
  op: "Sub"
  input: "dnn/layer0/fully_connected/weights/Initializer/random_uniform/max"
  input: "dnn/layer0/fully_connected/weights/Initializer/random_uniform/min"
  attr {
    key: "T"
    value {
      type: DT_FLOAT
    }
  }
  attr {
    key: "_class"
    value {
      list {
        s: "loc:@dnn/layer0/fully_connected/weights"
      }
    }
  }
  attr {
    key: "_output_shapes"
    value {
      list {
        shape {
        }
      }
    }
  }
}
node {
  name: "dnn/layer0/fully_connected/weights/Initializer/random_uniform/mul"
  op: "Mul"
  input: "dnn/layer0/fully_connected/weights/Initializer/random_uniform/RandomUniform"
  input: "dnn/layer0/fully_connected/weights/Initializer/random_uniform/sub"
  attr {
    key: "T"
    value {
      type: DT_FLOAT
    }
  }
  attr {
    key: "_class"
    value {
      list {
        s: "loc:@dnn/layer0/fully_connected/weights"
      }
    }
  }
  attr {
    key: "_output_shapes"
    value {
      list {
        shape {
          dim {
            size: 2
          }
          dim {
            size: 1
          }
        }
      }
    }
  }
}
node {
  name: "dnn/layer0/fully_connected/weights/Initializer/random_uniform"
  op: "Add"
  input: "dnn/layer0/fully_connected/weights/Initializer/random_uniform/mul"
  input: "dnn/layer0/fully_connected/weights/Initializer/random_uniform/min"
  attr {
    key: "T"
    value {
      type: DT_FLOAT
    }
  }
  attr {
    key: "_class"
    value {
      list {
        s: "loc:@dnn/layer0/fully_connected/weights"
      }
    }
  }
  attr {
    key: "_output_shapes"
    value {
      list {
        shape {
          dim {
            size: 2
          }
          dim {
            size: 1
          }
        }
      }
    }
  }
}
node {
  name: "dnn/layer0/fully_connected/weights/Assign"
  op: "Assign"
  input: "dnn/layer0/fully_connected/weights"
  input: "dnn/layer0/fully_connected/weights/Initializer/random_uniform"
  attr {
    key: "T"
    value {
      type: DT_FLOAT
    }
  }
  attr {
    key: "_class"
    value {
      list {
        s: "loc:@dnn/layer0/fully_connected/weights"
      }
    }
  }
  attr {
    key: "_output_shapes"
    value {
      list {
        shape {
          dim {
            size: 2
          }
          dim {
            size: 1
          }
        }
      }
    }
  }
  attr {
    key: "use_locking"
    value {
      b: true
    }
  }
  attr {
    key: "validate_shape"
    value {
      b: true
    }
  }
}
node {
  name: "dnn/layer0/fully_connected/weights/read"
  op: "Identity"
  input: "dnn/layer0/fully_connected/weights"
  attr {
    key: "T"
    value {
      type: DT_FLOAT
    }
  }
  attr {
    key: "_class"
    value {
      list {
        s: "loc:@dnn/layer0/fully_connected/weights"
      }
    }
  }
  attr {
    key: "_output_shapes"
    value {
      list {
        shape {
          dim {
            size: 2
          }
          dim {
            size: 1
          }
        }
      }
    }
  }
}
node {
  name: "dnn/layer0/fully_connected/MatMul"
  op: "MatMul"
  input: "RNN/MultiRNNCell_4/Cell1/BasicLSTMCell/mul_2"
  input: "dnn/layer0/fully_connected/weights/read"
  attr {
    key: "T"
    value {
      type: DT_FLOAT
    }
  }
  attr {
    key: "_output_shapes"
    value {
      list {
        shape {
          dim {
            size: -1
          }
          dim {
            size: 1
          }
        }
      }
    }
  }
  attr {
    key: "transpose_a"
    value {
      b: false
    }
  }
  attr {
    key: "transpose_b"
    value {
      b: false
    }
  }
}
node {
  name: "dnn/layer0/fully_connected/bias"
  op: "Variable"
  attr {
    key: "_output_shapes"
    value {
      list {
        shape {
          dim {
            size: 1
          }
        }
      }
    }
  }
  attr {
    key: "container"
    value {
      s: ""
    }
  }
  attr {
    key: "dtype"
    value {
      type: DT_FLOAT
    }
  }
  attr {
    key: "shape"
    value {
      shape {
        dim {
          size: 1
        }
      }
    }
  }
  attr {
    key: "shared_name"
    value {
      s: ""
    }
  }
}
node {
  name: "dnn/layer0/fully_connected/bias/Initializer/zeros"
  op: "Const"
  attr {
    key: "_class"
    value {
      list {
        s: "loc:@dnn/layer0/fully_connected/bias"
      }
    }
  }
  attr {
    key: "_output_shapes"
    value {
      list {
        shape {
          dim {
            size: 1
          }
        }
      }
    }
  }
  attr {
    key: "dtype"
    value {
      type: DT_FLOAT
    }
  }
  attr {
    key: "value"
    value {
      tensor {
        dtype: DT_FLOAT
        tensor_shape {
          dim {
            size: 1
          }
        }
        float_val: 0.0
      }
    }
  }
}
node {
  name: "dnn/layer0/fully_connected/bias/Assign"
  op: "Assign"
  input: "dnn/layer0/fully_connected/bias"
  input: "dnn/layer0/fully_connected/bias/Initializer/zeros"
  attr {
    key: "T"
    value {
      type: DT_FLOAT
    }
  }
  attr {
    key: "_class"
    value {
      list {
        s: "loc:@dnn/layer0/fully_connected/bias"
      }
    }
  }
  attr {
    key: "_output_shapes"
    value {
      list {
        shape {
          dim {
            size: 1
          }
        }
      }
    }
  }
  attr {
    key: "use_locking"
    value {
      b: true
    }
  }
  attr {
    key: "validate_shape"
    value {
      b: true
    }
  }
}
node {
  name: "dnn/layer0/fully_connected/bias/read"
  op: "Identity"
  input: "dnn/layer0/fully_connected/bias"
  attr {
    key: "T"
    value {
      type: DT_FLOAT
    }
  }
  attr {
    key: "_class"
    value {
      list {
        s: "loc:@dnn/layer0/fully_connected/bias"
      }
    }
  }
  attr {
    key: "_output_shapes"
    value {
      list {
        shape {
          dim {
            size: 1
          }
        }
      }
    }
  }
}
node {
  name: "dnn/layer0/fully_connected/BiasAdd"
  op: "BiasAdd"
  input: "dnn/layer0/fully_connected/MatMul"
  input: "dnn/layer0/fully_connected/bias/read"
  attr {
    key: "T"
    value {
      type: DT_FLOAT
    }
  }
  attr {
    key: "_output_shapes"
    value {
      list {
        shape {
          dim {
            size: -1
          }
          dim {
            size: 1
          }
        }
      }
    }
  }
  attr {
    key: "data_format"
    value {
      s: "NHWC"
    }
  }
}
node {
  name: "dnn/layer0/Relu"
  op: "Relu"
  input: "dnn/layer0/fully_connected/BiasAdd"
  attr {
    key: "T"
    value {
      type: DT_FLOAT
    }
  }
  attr {
    key: "_output_shapes"
    value {
      list {
        shape {
          dim {
            size: -1
          }
          dim {
            size: 1
          }
        }
      }
    }
  }
}
node {
  name: "linear_regression/HistogramSummary/tag"
  op: "Const"
  attr {
    key: "_output_shapes"
    value {
      list {
        shape {
        }
      }
    }
  }
  attr {
    key: "dtype"
    value {
      type: DT_STRING
    }
  }
  attr {
    key: "value"
    value {
      tensor {
        dtype: DT_STRING
        tensor_shape {
        }
        string_val: "linear_regression.x"
      }
    }
  }
}
node {
  name: "linear_regression/HistogramSummary"
  op: "HistogramSummary"
  input: "linear_regression/HistogramSummary/tag"
  input: "dnn/layer0/Relu"
  attr {
    key: "T"
    value {
      type: DT_FLOAT
    }
  }
  attr {
    key: "_output_shapes"
    value {
      list {
        shape {
        }
      }
    }
  }
}
node {
  name: "linear_regression/HistogramSummary_1/tag"
  op: "Const"
  attr {
    key: "_output_shapes"
    value {
      list {
        shape {
        }
      }
    }
  }
  attr {
    key: "dtype"
    value {
      type: DT_STRING
    }
  }
  attr {
    key: "value"
    value {
      tensor {
        dtype: DT_STRING
        tensor_shape {
        }
        string_val: "linear_regression.y"
      }
    }
  }
}
node {
  name: "linear_regression/HistogramSummary_1"
  op: "HistogramSummary"
  input: "linear_regression/HistogramSummary_1/tag"
  input: "output"
  attr {
    key: "T"
    value {
      type: DT_DOUBLE
    }
  }
  attr {
    key: "_output_shapes"
    value {
      list {
        shape {
        }
      }
    }
  }
}
node {
  name: "linear_regression/weights"
  op: "Variable"
  attr {
    key: "_output_shapes"
    value {
      list {
        shape {
          dim {
            size: 1
          }
          dim {
            size: 2
          }
        }
      }
    }
  }
  attr {
    key: "container"
    value {
      s: ""
    }
  }
  attr {
    key: "dtype"
    value {
      type: DT_FLOAT
    }
  }
  attr {
    key: "shape"
    value {
      shape {
        dim {
          size: 1
        }
        dim {
          size: 2
        }
      }
    }
  }
  attr {
    key: "shared_name"
    value {
      s: ""
    }
  }
}
node {
  name: "linear_regression/weights/Initializer/random_uniform/shape"
  op: "Const"
  attr {
    key: "_class"
    value {
      list {
        s: "loc:@linear_regression/weights"
      }
    }
  }
  attr {
    key: "_output_shapes"
    value {
      list {
        shape {
          dim {
            size: 2
          }
        }
      }
    }
  }
  attr {
    key: "dtype"
    value {
      type: DT_INT32
    }
  }
  attr {
    key: "value"
    value {
      tensor {
        dtype: DT_INT32
        tensor_shape {
          dim {
            size: 2
          }
        }
        tensor_content: "\001\000\000\000\002\000\000\000"
      }
    }
  }
}
node {
  name: "linear_regression/weights/Initializer/random_uniform/min"
  op: "Const"
  attr {
    key: "_class"
    value {
      list {
        s: "loc:@linear_regression/weights"
      }
    }
  }
  attr {
    key: "_output_shapes"
    value {
      list {
        shape {
        }
      }
    }
  }
  attr {
    key: "dtype"
    value {
      type: DT_FLOAT
    }
  }
  attr {
    key: "value"
    value {
      tensor {
        dtype: DT_FLOAT
        tensor_shape {
        }
        float_val: -1.73205077648
      }
    }
  }
}
node {
  name: "linear_regression/weights/Initializer/random_uniform/max"
  op: "Const"
  attr {
    key: "_class"
    value {
      list {
        s: "loc:@linear_regression/weights"
      }
    }
  }
  attr {
    key: "_output_shapes"
    value {
      list {
        shape {
        }
      }
    }
  }
  attr {
    key: "dtype"
    value {
      type: DT_FLOAT
    }
  }
  attr {
    key: "value"
    value {
      tensor {
        dtype: DT_FLOAT
        tensor_shape {
        }
        float_val: 1.73205077648
      }
    }
  }
}
node {
  name: "linear_regression/weights/Initializer/random_uniform/RandomUniform"
  op: "RandomUniform"
  input: "linear_regression/weights/Initializer/random_uniform/shape"
  attr {
    key: "T"
    value {
      type: DT_INT32
    }
  }
  attr {
    key: "_class"
    value {
      list {
        s: "loc:@linear_regression/weights"
      }
    }
  }
  attr {
    key: "_output_shapes"
    value {
      list {
        shape {
          dim {
            size: 1
          }
          dim {
            size: 2
          }
        }
      }
    }
  }
  attr {
    key: "dtype"
    value {
      type: DT_FLOAT
    }
  }
  attr {
    key: "seed"
    value {
      i: 42
    }
  }
  attr {
    key: "seed2"
    value {
      i: 251
    }
  }
}
node {
  name: "linear_regression/weights/Initializer/random_uniform/sub"
  op: "Sub"
  input: "linear_regression/weights/Initializer/random_uniform/max"
  input: "linear_regression/weights/Initializer/random_uniform/min"
  attr {
    key: "T"
    value {
      type: DT_FLOAT
    }
  }
  attr {
    key: "_class"
    value {
      list {
        s: "loc:@linear_regression/weights"
      }
    }
  }
  attr {
    key: "_output_shapes"
    value {
      list {
        shape {
        }
      }
    }
  }
}
node {
  name: "linear_regression/weights/Initializer/random_uniform/mul"
  op: "Mul"
  input: "linear_regression/weights/Initializer/random_uniform/RandomUniform"
  input: "linear_regression/weights/Initializer/random_uniform/sub"
  attr {
    key: "T"
    value {
      type: DT_FLOAT
    }
  }
  attr {
    key: "_class"
    value {
      list {
        s: "loc:@linear_regression/weights"
      }
    }
  }
  attr {
    key: "_output_shapes"
    value {
      list {
        shape {
          dim {
            size: 1
          }
          dim {
            size: 2
          }
        }
      }
    }
  }
}
node {
  name: "linear_regression/weights/Initializer/random_uniform"
  op: "Add"
  input: "linear_regression/weights/Initializer/random_uniform/mul"
  input: "linear_regression/weights/Initializer/random_uniform/min"
  attr {
    key: "T"
    value {
      type: DT_FLOAT
    }
  }
  attr {
    key: "_class"
    value {
      list {
        s: "loc:@linear_regression/weights"
      }
    }
  }
  attr {
    key: "_output_shapes"
    value {
      list {
        shape {
          dim {
            size: 1
          }
          dim {
            size: 2
          }
        }
      }
    }
  }
}
node {
  name: "linear_regression/weights/Assign"
  op: "Assign"
  input: "linear_regression/weights"
  input: "linear_regression/weights/Initializer/random_uniform"
  attr {
    key: "T"
    value {
      type: DT_FLOAT
    }
  }
  attr {
    key: "_class"
    value {
      list {
        s: "loc:@linear_regression/weights"
      }
    }
  }
  attr {
    key: "_output_shapes"
    value {
      list {
        shape {
          dim {
            size: 1
          }
          dim {
            size: 2
          }
        }
      }
    }
  }
  attr {
    key: "use_locking"
    value {
      b: true
    }
  }
  attr {
    key: "validate_shape"
    value {
      b: true
    }
  }
}
node {
  name: "linear_regression/weights/read"
  op: "Identity"
  input: "linear_regression/weights"
  attr {
    key: "T"
    value {
      type: DT_FLOAT
    }
  }
  attr {
    key: "_class"
    value {
      list {
        s: "loc:@linear_regression/weights"
      }
    }
  }
  attr {
    key: "_output_shapes"
    value {
      list {
        shape {
          dim {
            size: 1
          }
          dim {
            size: 2
          }
        }
      }
    }
  }
}
node {
  name: "linear_regression/bias"
  op: "Variable"
  attr {
    key: "_output_shapes"
    value {
      list {
        shape {
          dim {
            size: 2
          }
        }
      }
    }
  }
  attr {
    key: "container"
    value {
      s: ""
    }
  }
  attr {
    key: "dtype"
    value {
      type: DT_FLOAT
    }
  }
  attr {
    key: "shape"
    value {
      shape {
        dim {
          size: 2
        }
      }
    }
  }
  attr {
    key: "shared_name"
    value {
      s: ""
    }
  }
}
node {
  name: "linear_regression/bias/Initializer/random_uniform/shape"
  op: "Const"
  attr {
    key: "_class"
    value {
      list {
        s: "loc:@linear_regression/bias"
      }
    }
  }
  attr {
    key: "_output_shapes"
    value {
      list {
        shape {
          dim {
            size: 1
          }
        }
      }
    }
  }
  attr {
    key: "dtype"
    value {
      type: DT_INT32
    }
  }
  attr {
    key: "value"
    value {
      tensor {
        dtype: DT_INT32
        tensor_shape {
          dim {
            size: 1
          }
        }
        int_val: 2
      }
    }
  }
}
node {
  name: "linear_regression/bias/Initializer/random_uniform/min"
  op: "Const"
  attr {
    key: "_class"
    value {
      list {
        s: "loc:@linear_regression/bias"
      }
    }
  }
  attr {
    key: "_output_shapes"
    value {
      list {
        shape {
        }
      }
    }
  }
  attr {
    key: "dtype"
    value {
      type: DT_FLOAT
    }
  }
  attr {
    key: "value"
    value {
      tensor {
        dtype: DT_FLOAT
        tensor_shape {
        }
        float_val: -1.73205077648
      }
    }
  }
}
node {
  name: "linear_regression/bias/Initializer/random_uniform/max"
  op: "Const"
  attr {
    key: "_class"
    value {
      list {
        s: "loc:@linear_regression/bias"
      }
    }
  }
  attr {
    key: "_output_shapes"
    value {
      list {
        shape {
        }
      }
    }
  }
  attr {
    key: "dtype"
    value {
      type: DT_FLOAT
    }
  }
  attr {
    key: "value"
    value {
      tensor {
        dtype: DT_FLOAT
        tensor_shape {
        }
        float_val: 1.73205077648
      }
    }
  }
}
node {
  name: "linear_regression/bias/Initializer/random_uniform/RandomUniform"
  op: "RandomUniform"
  input: "linear_regression/bias/Initializer/random_uniform/shape"
  attr {
    key: "T"
    value {
      type: DT_INT32
    }
  }
  attr {
    key: "_class"
    value {
      list {
        s: "loc:@linear_regression/bias"
      }
    }
  }
  attr {
    key: "_output_shapes"
    value {
      list {
        shape {
          dim {
            size: 2
          }
        }
      }
    }
  }
  attr {
    key: "dtype"
    value {
      type: DT_FLOAT
    }
  }
  attr {
    key: "seed"
    value {
      i: 42
    }
  }
  attr {
    key: "seed2"
    value {
      i: 261
    }
  }
}
node {
  name: "linear_regression/bias/Initializer/random_uniform/sub"
  op: "Sub"
  input: "linear_regression/bias/Initializer/random_uniform/max"
  input: "linear_regression/bias/Initializer/random_uniform/min"
  attr {
    key: "T"
    value {
      type: DT_FLOAT
    }
  }
  attr {
    key: "_class"
    value {
      list {
        s: "loc:@linear_regression/bias"
      }
    }
  }
  attr {
    key: "_output_shapes"
    value {
      list {
        shape {
        }
      }
    }
  }
}
node {
  name: "linear_regression/bias/Initializer/random_uniform/mul"
  op: "Mul"
  input: "linear_regression/bias/Initializer/random_uniform/RandomUniform"
  input: "linear_regression/bias/Initializer/random_uniform/sub"
  attr {
    key: "T"
    value {
      type: DT_FLOAT
    }
  }
  attr {
    key: "_class"
    value {
      list {
        s: "loc:@linear_regression/bias"
      }
    }
  }
  attr {
    key: "_output_shapes"
    value {
      list {
        shape {
          dim {
            size: 2
          }
        }
      }
    }
  }
}
node {
  name: "linear_regression/bias/Initializer/random_uniform"
  op: "Add"
  input: "linear_regression/bias/Initializer/random_uniform/mul"
  input: "linear_regression/bias/Initializer/random_uniform/min"
  attr {
    key: "T"
    value {
      type: DT_FLOAT
    }
  }
  attr {
    key: "_class"
    value {
      list {
        s: "loc:@linear_regression/bias"
      }
    }
  }
  attr {
    key: "_output_shapes"
    value {
      list {
        shape {
          dim {
            size: 2
          }
        }
      }
    }
  }
}
node {
  name: "linear_regression/bias/Assign"
  op: "Assign"
  input: "linear_regression/bias"
  input: "linear_regression/bias/Initializer/random_uniform"
  attr {
    key: "T"
    value {
      type: DT_FLOAT
    }
  }
  attr {
    key: "_class"
    value {
      list {
        s: "loc:@linear_regression/bias"
      }
    }
  }
  attr {
    key: "_output_shapes"
    value {
      list {
        shape {
          dim {
            size: 2
          }
        }
      }
    }
  }
  attr {
    key: "use_locking"
    value {
      b: true
    }
  }
  attr {
    key: "validate_shape"
    value {
      b: true
    }
  }
}
node {
  name: "linear_regression/bias/read"
  op: "Identity"
  input: "linear_regression/bias"
  attr {
    key: "T"
    value {
      type: DT_FLOAT
    }
  }
  attr {
    key: "_class"
    value {
      list {
        s: "loc:@linear_regression/bias"
      }
    }
  }
  attr {
    key: "_output_shapes"
    value {
      list {
        shape {
          dim {
            size: 2
          }
        }
      }
    }
  }
}
node {
  name: "linear_regression/HistogramSummary_2/tag"
  op: "Const"
  attr {
    key: "_output_shapes"
    value {
      list {
        shape {
        }
      }
    }
  }
  attr {
    key: "dtype"
    value {
      type: DT_STRING
    }
  }
  attr {
    key: "value"
    value {
      tensor {
        dtype: DT_STRING
        tensor_shape {
        }
        string_val: "linear_regression.weights"
      }
    }
  }
}
node {
  name: "linear_regression/HistogramSummary_2"
  op: "HistogramSummary"
  input: "linear_regression/HistogramSummary_2/tag"
  input: "linear_regression/weights/read"
  attr {
    key: "T"
    value {
      type: DT_FLOAT
    }
  }
  attr {
    key: "_output_shapes"
    value {
      list {
        shape {
        }
      }
    }
  }
}
node {
  name: "linear_regression/HistogramSummary_3/tag"
  op: "Const"
  attr {
    key: "_output_shapes"
    value {
      list {
        shape {
        }
      }
    }
  }
  attr {
    key: "dtype"
    value {
      type: DT_STRING
    }
  }
  attr {
    key: "value"
    value {
      tensor {
        dtype: DT_STRING
        tensor_shape {
        }
        string_val: "linear_regression.bias"
      }
    }
  }
}
node {
  name: "linear_regression/HistogramSummary_3"
  op: "HistogramSummary"
  input: "linear_regression/HistogramSummary_3/tag"
  input: "linear_regression/bias/read"
  attr {
    key: "T"
    value {
      type: DT_FLOAT
    }
  }
  attr {
    key: "_output_shapes"
    value {
      list {
        shape {
        }
      }
    }
  }
}
node {
  name: "linear_regression/mean_squared_error_regressor/xw_plus_b/MatMul"
  op: "MatMul"
  input: "dnn/layer0/Relu"
  input: "linear_regression/weights/read"
  attr {
    key: "T"
    value {
      type: DT_FLOAT
    }
  }
  attr {
    key: "_output_shapes"
    value {
      list {
        shape {
          dim {
            size: -1
          }
          dim {
            size: 2
          }
        }
      }
    }
  }
  attr {
    key: "transpose_a"
    value {
      b: false
    }
  }
  attr {
    key: "transpose_b"
    value {
      b: false
    }
  }
}
node {
  name: "linear_regression/mean_squared_error_regressor/xw_plus_b"
  op: "BiasAdd"
  input: "linear_regression/mean_squared_error_regressor/xw_plus_b/MatMul"
  input: "linear_regression/bias/read"
  attr {
    key: "T"
    value {
      type: DT_FLOAT
    }
  }
  attr {
    key: "_output_shapes"
    value {
      list {
        shape {
          dim {
            size: -1
          }
          dim {
            size: 2
          }
        }
      }
    }
  }
  attr {
    key: "data_format"
    value {
      s: "NHWC"
    }
  }
}
node {
  name: "linear_regression/mean_squared_error_regressor/sum_of_squares_loss/ToFloat_1"
  op: "Cast"
  input: "output"
  attr {
    key: "DstT"
    value {
      type: DT_FLOAT
    }
  }
  attr {
    key: "SrcT"
    value {
      type: DT_DOUBLE
    }
  }
  attr {
    key: "_output_shapes"
    value {
      list {
        shape {
          dim {
            size: -1
          }
          dim {
            size: 2
          }
        }
      }
    }
  }
}
node {
  name: "linear_regression/mean_squared_error_regressor/sum_of_squares_loss/Sub"
  op: "Sub"
  input: "linear_regression/mean_squared_error_regressor/xw_plus_b"
  input: "linear_regression/mean_squared_error_regressor/sum_of_squares_loss/ToFloat_1"
  attr {
    key: "T"
    value {
      type: DT_FLOAT
    }
  }
  attr {
    key: "_output_shapes"
    value {
      list {
        shape {
          dim {
            size: -1
          }
          dim {
            size: 2
          }
        }
      }
    }
  }
}
node {
  name: "linear_regression/mean_squared_error_regressor/sum_of_squares_loss/Square"
  op: "Square"
  input: "linear_regression/mean_squared_error_regressor/sum_of_squares_loss/Sub"
  attr {
    key: "T"
    value {
      type: DT_FLOAT
    }
  }
  attr {
    key: "_output_shapes"
    value {
      list {
        shape {
          dim {
            size: -1
          }
          dim {
            size: 2
          }
        }
      }
    }
  }
}
node {
  name: "linear_regression/mean_squared_error_regressor/sum_of_squares_loss/Const"
  op: "Const"
  attr {
    key: "_output_shapes"
    value {
      list {
        shape {
        }
      }
    }
  }
  attr {
    key: "dtype"
    value {
      type: DT_FLOAT
    }
  }
  attr {
    key: "value"
    value {
      tensor {
        dtype: DT_FLOAT
        tensor_shape {
        }
        float_val: 1.0
      }
    }
  }
}
node {
  name: "linear_regression/mean_squared_error_regressor/sum_of_squares_loss/Sum/reduction_indices"
  op: "Const"
  attr {
    key: "_output_shapes"
    value {
      list {
        shape {
          dim {
            size: 2
          }
        }
      }
    }
  }
  attr {
    key: "dtype"
    value {
      type: DT_INT32
    }
  }
  attr {
    key: "value"
    value {
      tensor {
        dtype: DT_INT32
        tensor_shape {
          dim {
            size: 2
          }
        }
        tensor_content: "\000\000\000\000\001\000\000\000"
      }
    }
  }
}
node {
  name: "linear_regression/mean_squared_error_regressor/sum_of_squares_loss/Sum"
  op: "Sum"
  input: "linear_regression/mean_squared_error_regressor/sum_of_squares_loss/Square"
  input: "linear_regression/mean_squared_error_regressor/sum_of_squares_loss/Sum/reduction_indices"
  attr {
    key: "T"
    value {
      type: DT_FLOAT
    }
  }
  attr {
    key: "_output_shapes"
    value {
      list {
        shape {
        }
      }
    }
  }
  attr {
    key: "keep_dims"
    value {
      b: false
    }
  }
}
node {
  name: "linear_regression/mean_squared_error_regressor/sum_of_squares_loss/Mul"
  op: "Mul"
  input: "linear_regression/mean_squared_error_regressor/sum_of_squares_loss/Sum"
  input: "linear_regression/mean_squared_error_regressor/sum_of_squares_loss/Const"
  attr {
    key: "T"
    value {
      type: DT_FLOAT
    }
  }
  attr {
    key: "_output_shapes"
    value {
      list {
        shape {
        }
      }
    }
  }
}
node {
  name: "linear_regression/mean_squared_error_regressor/sum_of_squares_loss/Const_1"
  op: "Const"
  attr {
    key: "_output_shapes"
    value {
      list {
        shape {
          dim {
          }
        }
      }
    }
  }
  attr {
    key: "dtype"
    value {
      type: DT_INT32
    }
  }
  attr {
    key: "value"
    value {
      tensor {
        dtype: DT_INT32
        tensor_shape {
          dim {
          }
        }
      }
    }
  }
}
node {
  name: "linear_regression/mean_squared_error_regressor/sum_of_squares_loss/Sum_1"
  op: "Sum"
  input: "linear_regression/mean_squared_error_regressor/sum_of_squares_loss/Mul"
  input: "linear_regression/mean_squared_error_regressor/sum_of_squares_loss/Const_1"
  attr {
    key: "T"
    value {
      type: DT_FLOAT
    }
  }
  attr {
    key: "_output_shapes"
    value {
      list {
        shape {
        }
      }
    }
  }
  attr {
    key: "keep_dims"
    value {
      b: false
    }
  }
}
node {
  name: "linear_regression/mean_squared_error_regressor/sum_of_squares_loss/Squeeze"
  op: "Squeeze"
  input: "linear_regression/mean_squared_error_regressor/sum_of_squares_loss/Const"
  attr {
    key: "T"
    value {
      type: DT_FLOAT
    }
  }
  attr {
    key: "_output_shapes"
    value {
      list {
        shape {
        }
      }
    }
  }
  attr {
    key: "squeeze_dims"
    value {
      list {
      }
    }
  }
}
node {
  name: "linear_regression/mean_squared_error_regressor/sum_of_squares_loss/Shape"
  op: "Shape"
  input: "linear_regression/mean_squared_error_regressor/sum_of_squares_loss/Square"
  attr {
    key: "T"
    value {
      type: DT_FLOAT
    }
  }
  attr {
    key: "_output_shapes"
    value {
      list {
        shape {
          dim {
            size: 2
          }
        }
      }
    }
  }
}
node {
  name: "linear_regression/mean_squared_error_regressor/sum_of_squares_loss/Slice/begin"
  op: "Const"
  attr {
    key: "_output_shapes"
    value {
      list {
        shape {
          dim {
            size: 1
          }
        }
      }
    }
  }
  attr {
    key: "dtype"
    value {
      type: DT_INT32
    }
  }
  attr {
    key: "value"
    value {
      tensor {
        dtype: DT_INT32
        tensor_shape {
          dim {
            size: 1
          }
        }
        int_val: 0
      }
    }
  }
}
node {
  name: "linear_regression/mean_squared_error_regressor/sum_of_squares_loss/Slice/size"
  op: "Const"
  attr {
    key: "_output_shapes"
    value {
      list {
        shape {
          dim {
            size: 1
          }
        }
      }
    }
  }
  attr {
    key: "dtype"
    value {
      type: DT_INT32
    }
  }
  attr {
    key: "value"
    value {
      tensor {
        dtype: DT_INT32
        tensor_shape {
          dim {
            size: 1
          }
        }
        int_val: 1
      }
    }
  }
}
node {
  name: "linear_regression/mean_squared_error_regressor/sum_of_squares_loss/Slice"
  op: "Slice"
  input: "linear_regression/mean_squared_error_regressor/sum_of_squares_loss/Shape"
  input: "linear_regression/mean_squared_error_regressor/sum_of_squares_loss/Slice/begin"
  input: "linear_regression/mean_squared_error_regressor/sum_of_squares_loss/Slice/size"
  attr {
    key: "Index"
    value {
      type: DT_INT32
    }
  }
  attr {
    key: "T"
    value {
      type: DT_INT32
    }
  }
  attr {
    key: "_output_shapes"
    value {
      list {
        shape {
          dim {
            size: 1
          }
        }
      }
    }
  }
}
node {
  name: "linear_regression/mean_squared_error_regressor/sum_of_squares_loss/Reshape/shape"
  op: "Const"
  attr {
    key: "_output_shapes"
    value {
      list {
        shape {
          dim {
          }
        }
      }
    }
  }
  attr {
    key: "dtype"
    value {
      type: DT_INT32
    }
  }
  attr {
    key: "value"
    value {
      tensor {
        dtype: DT_INT32
        tensor_shape {
          dim {
          }
        }
      }
    }
  }
}
node {
  name: "linear_regression/mean_squared_error_regressor/sum_of_squares_loss/Reshape"
  op: "Reshape"
  input: "linear_regression/mean_squared_error_regressor/sum_of_squares_loss/Slice"
  input: "linear_regression/mean_squared_error_regressor/sum_of_squares_loss/Reshape/shape"
  attr {
    key: "T"
    value {
      type: DT_INT32
    }
  }
  attr {
    key: "_output_shapes"
    value {
      list {
        shape {
        }
      }
    }
  }
}
node {
  name: "linear_regression/mean_squared_error_regressor/sum_of_squares_loss/Size"
  op: "Size"
  input: "linear_regression/mean_squared_error_regressor/sum_of_squares_loss/Square"
  attr {
    key: "T"
    value {
      type: DT_FLOAT
    }
  }
  attr {
    key: "_output_shapes"
    value {
      list {
        shape {
        }
      }
    }
  }
}
node {
  name: "linear_regression/mean_squared_error_regressor/sum_of_squares_loss/ToFloat_4"
  op: "Cast"
  input: "linear_regression/mean_squared_error_regressor/sum_of_squares_loss/Size"
  attr {
    key: "DstT"
    value {
      type: DT_FLOAT
    }
  }
  attr {
    key: "SrcT"
    value {
      type: DT_INT32
    }
  }
  attr {
    key: "_output_shapes"
    value {
      list {
        shape {
        }
      }
    }
  }
}
node {
  name: "linear_regression/mean_squared_error_regressor/sum_of_squares_loss/ToFloat_5"
  op: "Cast"
  input: "linear_regression/mean_squared_error_regressor/sum_of_squares_loss/Reshape"
  attr {
    key: "DstT"
    value {
      type: DT_FLOAT
    }
  }
  attr {
    key: "SrcT"
    value {
      type: DT_INT32
    }
  }
  attr {
    key: "_output_shapes"
    value {
      list {
        shape {
        }
      }
    }
  }
}
node {
  name: "linear_regression/mean_squared_error_regressor/sum_of_squares_loss/Div"
  op: "Div"
  input: "linear_regression/mean_squared_error_regressor/sum_of_squares_loss/ToFloat_4"
  input: "linear_regression/mean_squared_error_regressor/sum_of_squares_loss/ToFloat_5"
  attr {
    key: "T"
    value {
      type: DT_FLOAT
    }
  }
  attr {
    key: "_output_shapes"
    value {
      list {
        shape {
        }
      }
    }
  }
}
node {
  name: "linear_regression/mean_squared_error_regressor/sum_of_squares_loss/Equal/y"
  op: "Const"
  attr {
    key: "_output_shapes"
    value {
      list {
        shape {
        }
      }
    }
  }
  attr {
    key: "dtype"
    value {
      type: DT_FLOAT
    }
  }
  attr {
    key: "value"
    value {
      tensor {
        dtype: DT_FLOAT
        tensor_shape {
        }
        float_val: 0.0
      }
    }
  }
}
node {
  name: "linear_regression/mean_squared_error_regressor/sum_of_squares_loss/Equal"
  op: "Equal"
  input: "linear_regression/mean_squared_error_regressor/sum_of_squares_loss/Squeeze"
  input: "linear_regression/mean_squared_error_regressor/sum_of_squares_loss/Equal/y"
  attr {
    key: "T"
    value {
      type: DT_FLOAT
    }
  }
  attr {
    key: "_output_shapes"
    value {
      list {
        shape {
        }
      }
    }
  }
}
node {
  name: "linear_regression/mean_squared_error_regressor/sum_of_squares_loss/Select/t"
  op: "Const"
  attr {
    key: "_output_shapes"
    value {
      list {
        shape {
        }
      }
    }
  }
  attr {
    key: "dtype"
    value {
      type: DT_FLOAT
    }
  }
  attr {
    key: "value"
    value {
      tensor {
        dtype: DT_FLOAT
        tensor_shape {
        }
        float_val: 0.0
      }
    }
  }
}
node {
  name: "linear_regression/mean_squared_error_regressor/sum_of_squares_loss/Select"
  op: "Select"
  input: "linear_regression/mean_squared_error_regressor/sum_of_squares_loss/Equal"
  input: "linear_regression/mean_squared_error_regressor/sum_of_squares_loss/Select/t"
  input: "linear_regression/mean_squared_error_regressor/sum_of_squares_loss/Div"
  attr {
    key: "T"
    value {
      type: DT_FLOAT
    }
  }
  attr {
    key: "_output_shapes"
    value {
      list {
        shape {
        }
      }
    }
  }
}
node {
  name: "linear_regression/mean_squared_error_regressor/sum_of_squares_loss/Reshape_1/shape"
  op: "Const"
  attr {
    key: "_output_shapes"
    value {
      list {
        shape {
          dim {
            size: 1
          }
        }
      }
    }
  }
  attr {
    key: "dtype"
    value {
      type: DT_INT32
    }
  }
  attr {
    key: "value"
    value {
      tensor {
        dtype: DT_INT32
        tensor_shape {
          dim {
            size: 1
          }
        }
        int_val: 1
      }
    }
  }
}
node {
  name: "linear_regression/mean_squared_error_regressor/sum_of_squares_loss/Reshape_1"
  op: "Reshape"
  input: "linear_regression/mean_squared_error_regressor/sum_of_squares_loss/Reshape"
  input: "linear_regression/mean_squared_error_regressor/sum_of_squares_loss/Reshape_1/shape"
  attr {
    key: "T"
    value {
      type: DT_INT32
    }
  }
  attr {
    key: "_output_shapes"
    value {
      list {
        shape {
          dim {
            size: 1
          }
        }
      }
    }
  }
}
node {
  name: "linear_regression/mean_squared_error_regressor/sum_of_squares_loss/ones/Const"
  op: "Const"
  attr {
    key: "_output_shapes"
    value {
      list {
        shape {
        }
      }
    }
  }
  attr {
    key: "dtype"
    value {
      type: DT_FLOAT
    }
  }
  attr {
    key: "value"
    value {
      tensor {
        dtype: DT_FLOAT
        tensor_shape {
        }
        float_val: 1.0
      }
    }
  }
}
node {
  name: "linear_regression/mean_squared_error_regressor/sum_of_squares_loss/ones"
  op: "Fill"
  input: "linear_regression/mean_squared_error_regressor/sum_of_squares_loss/Reshape_1"
  input: "linear_regression/mean_squared_error_regressor/sum_of_squares_loss/ones/Const"
  attr {
    key: "T"
    value {
      type: DT_FLOAT
    }
  }
  attr {
    key: "_output_shapes"
    value {
      list {
        shape {
          dim {
            size: -1
          }
        }
      }
    }
  }
}
node {
  name: "linear_regression/mean_squared_error_regressor/sum_of_squares_loss/Mul_1"
  op: "Mul"
  input: "linear_regression/mean_squared_error_regressor/sum_of_squares_loss/ones"
  input: "linear_regression/mean_squared_error_regressor/sum_of_squares_loss/Select"
  attr {
    key: "T"
    value {
      type: DT_FLOAT
    }
  }
  attr {
    key: "_output_shapes"
    value {
      list {
        shape {
          dim {
            size: -1
          }
        }
      }
    }
  }
}
node {
  name: "linear_regression/mean_squared_error_regressor/sum_of_squares_loss/Const_2"
  op: "Const"
  attr {
    key: "_output_shapes"
    value {
      list {
        shape {
          dim {
            size: 1
          }
        }
      }
    }
  }
  attr {
    key: "dtype"
    value {
      type: DT_INT32
    }
  }
  attr {
    key: "value"
    value {
      tensor {
        dtype: DT_INT32
        tensor_shape {
          dim {
            size: 1
          }
        }
        int_val: 0
      }
    }
  }
}
node {
  name: "linear_regression/mean_squared_error_regressor/sum_of_squares_loss/Sum_2"
  op: "Sum"
…
    value {
      type: DT_INT32
    }
  }
  attr {
    key: "value"
    value {
      tensor {
        dtype: DT_INT32
        tensor_shape {
          dim {
            size: 1
          }
        }
        int_val: -1
      }
    }
  }
}
node {
  name: "report_uninitialized_variables/Slice"
  op: "Slice"
  input: "report_uninitialized_variables/Shape"
  input: "report_uninitialized_variables/Slice/begin"
  input: "report_uninitialized_variables/Slice/size"
  attr {
    key: "Index"
    value {
      type: DT_INT32
    }
  }
  attr {
    key: "T"
    value {
      type: DT_INT32
    }
  }
  attr {
    key: "_output_shapes"
    value {
      list {
        shape {
          dim {
          }
        }
      }
    }
  }
}
node {
  name: "report_uninitialized_variables/concat/concat_dim"
  op: "Const"
  attr {
    key: "_output_shapes"
    value {
      list {
        shape {
        }
      }
    }
  }
  attr {
    key: "dtype"
    value {
      type: DT_INT32
    }
  }
  attr {
    key: "value"
    value {
      tensor {
        dtype: DT_INT32
        tensor_shape {
        }
        int_val: 0
      }
    }
  }
}
node {
  name: "report_uninitialized_variables/concat/values_0"
  op: "Const"
  attr {
    key: "_output_shapes"
    value {
      list {
        shape {
          dim {
            size: 1
          }
        }
      }
    }
  }
  attr {
    key: "dtype"
    value {
      type: DT_INT32
    }
  }
  attr {
    key: "value"
    value {
      tensor {
        dtype: DT_INT32
        tensor_shape {
          dim {
            size: 1
          }
        }
        int_val: -1
      }
    }
  }
}
node {
  name: "report_uninitialized_variables/concat"
  op: "Concat"
  input: "report_uninitialized_variables/concat/concat_dim"
  input: "report_uninitialized_variables/concat/values_0"
  input: "report_uninitialized_variables/Slice"
  attr {
    key: "N"
    value {
      i: 2
    }
  }
  attr {
    key: "T"
    value {
      type: DT_INT32
    }
  }
  attr {
    key: "_output_shapes"
    value {
      list {
        shape {
          dim {
            size: 1
          }
        }
      }
    }
  }
}
node {
  name: "report_uninitialized_variables/Reshape"
  op: "Reshape"
  input: "Const"
  input: "report_uninitialized_variables/concat"
  attr {
    key: "T"
    value {
      type: DT_STRING
    }
  }
  attr {
    key: "_output_shapes"
    value {
      list {
        shape {
          dim {
            size: 19
          }
        }
      }
    }
  }
}
node {
  name: "report_uninitialized_variables/Reshape_1/shape"
  op: "Const"
  attr {
    key: "_output_shapes"
    value {
      list {
        shape {
          dim {
            size: 1
          }
        }
      }
    }
  }
  attr {
    key: "dtype"
    value {
      type: DT_INT32
    }
  }
  attr {
    key: "value"
    value {
      tensor {
        dtype: DT_INT32
        tensor_shape {
          dim {
            size: 1
          }
        }
        int_val: -1
      }
    }
  }
}
node {
  name: "report_uninitialized_variables/Reshape_1"
  op: "Reshape"
  input: "LogicalNot"
  input: "report_uninitialized_variables/Reshape_1/shape"
  attr {
    key: "T"
    value {
      type: DT_BOOL
    }
  }
  attr {
    key: "_output_shapes"
    value {
      list {
        shape {
          dim {
            size: 19
          }
        }
      }
    }
  }
}
node {
  name: "report_uninitialized_variables/Where"
  op: "Where"
  input: "report_uninitialized_variables/Reshape_1"
  attr {
    key: "_output_shapes"
    value {
      list {
        shape {
          dim {
            size: -1
          }
          dim {
            size: 1
          }
        }
      }
    }
  }
}
node {
  name: "report_uninitialized_variables/Squeeze"
  op: "Squeeze"
  input: "report_uninitialized_variables/Where"
  attr {
    key: "T"
    value {
      type: DT_INT64
    }
  }
  attr {
    key: "_output_shapes"
    value {
      list {
        shape {
          dim {
            size: -1
          }
        }
      }
    }
  }
  attr {
    key: "squeeze_dims"
    value {
      list {
        i: 1
      }
    }
  }
}
node {
  name: "report_uninitialized_variables/Gather"
  op: "Gather"
  input: "report_uninitialized_variables/Reshape"
  input: "report_uninitialized_variables/Squeeze"
  attr {
    key: "Tindices"
    value {
      type: DT_INT64
    }
  }
  attr {
    key: "Tparams"
    value {
      type: DT_STRING
    }
  }
  attr {
    key: "_output_shapes"
    value {
      list {
        shape {
          dim {
            size: -1
          }
        }
      }
    }
  }
  attr {
    key: "validate_indices"
    value {
      b: true
    }
  }
}
node {
  name: "init_1"
  op: "NoOp"
}
node {
  name: "init_all_tables"
  op: "NoOp"
}
node {
  name: "group_deps"
  op: "NoOp"
  input: "^init_1"
  input: "^init_all_tables"
}
node {
  name: "MergeSummary/MergeSummary"
  op: "MergeSummary"
  input: "linear_regression/HistogramSummary"
  input: "linear_regression/HistogramSummary_1"
  input: "linear_regression/HistogramSummary_2"
  input: "linear_regression/HistogramSummary_3"
  input: "OptimizeLoss/ScalarSummary"
  input: "OptimizeLoss/ScalarSummary_1"
  input: "OptimizeLoss/HistogramSummary"
  input: "OptimizeLoss/HistogramSummary_1"
  input: "OptimizeLoss/HistogramSummary_2"
  input: "OptimizeLoss/HistogramSummary_3"
  input: "OptimizeLoss/HistogramSummary_4"
  input: "OptimizeLoss/HistogramSummary_5"
  input: "OptimizeLoss/HistogramSummary_6"
  input: "OptimizeLoss/HistogramSummary_7"
  input: "OptimizeLoss/HistogramSummary_8"
  input: "OptimizeLoss/HistogramSummary_9"
  input: "OptimizeLoss/HistogramSummary_10"
  input: "OptimizeLoss/HistogramSummary_11"
  input: "OptimizeLoss/HistogramSummary_12"
  input: "OptimizeLoss/HistogramSummary_13"
  input: "OptimizeLoss/HistogramSummary_14"
  input: "OptimizeLoss/HistogramSummary_15"
  input: "OptimizeLoss/HistogramSummary_16"
  input: "OptimizeLoss/HistogramSummary_17"
  input: "OptimizeLoss/HistogramSummary_18"
  input: "OptimizeLoss/HistogramSummary_19"
  input: "OptimizeLoss/HistogramSummary_20"
  input: "OptimizeLoss/HistogramSummary_21"
  input: "OptimizeLoss/HistogramSummary_22"
  input: "OptimizeLoss/HistogramSummary_23"
  attr {
    key: "N"
    value {
      i: 30
    }
  }
  attr {
    key: "_output_shapes"
    value {
      list {
        shape {
        }
      }
    }
  }
}
node {
  name: "save/Const"
  op: "Const"
  attr {
    key: "_output_shapes"
    value {
      list {
        shape {
        }
      }
    }
  }
  attr {
    key: "dtype"
    value {
      type: DT_STRING
    }
  }
  attr {
    key: "value"
    value {
      tensor {
        dtype: DT_STRING
        tensor_shape {
        }
        string_val: "model"
      }
    }
  }
}
node {
  name: "save/num_shards"
  op: "Const"
  attr {
    key: "_output_shapes"
    value {
      list {
        shape {
        }
      }
    }
  }
  attr {
    key: "dtype"
    value {
      type: DT_INT32
    }
  }
  attr {
    key: "value"
    value {
      tensor {
        dtype: DT_INT32
        tensor_shape {
        }
        int_val: 1
      }
    }
  }
}
node {
  name: "save/ShardedFilename/shard"
  op: "Const"
  attr {
    key: "_output_shapes"
    value {
      list {
        shape {
        }
      }
    }
  }
  attr {
    key: "dtype"
    value {
      type: DT_INT32
    }
  }
  attr {
    key: "value"
    value {
      tensor {
        dtype: DT_INT32
        tensor_shape {
        }
        int_val: 0
      }
    }
  }
}
node {
  name: "save/ShardedFilename"
  op: "ShardedFilename"
  input: "save/Const"
  input: "save/ShardedFilename/shard"
  input: "save/num_shards"
  attr {
    key: "_output_shapes"
    value {
      list {
        shape {
        }
      }
    }
  }
}
node {
  name: "save/save/tensor_names"
  op: "Const"
  attr {
    key: "_output_shapes"
    value {
      list {
        shape {
          dim {
            size: 19
          }
        }
      }
    }
  }
  attr {
    key: "dtype"
    value {
      type: DT_STRING
    }
  }
  attr {
    key: "value"
    value {
      tensor {
        dtype: DT_STRING
        tensor_shape {
          dim {
            size: 19
          }
        }
        string_val: "OptimizeLoss/RNN/MultiRNNCell/Cell0/BasicLSTMCell/Linear/Bias/Adagrad"
        string_val: "OptimizeLoss/RNN/MultiRNNCell/Cell0/BasicLSTMCell/Linear/Matrix/Adagrad"
        string_val: "OptimizeLoss/RNN/MultiRNNCell/Cell1/BasicLSTMCell/Linear/Bias/Adagrad"
        string_val: "OptimizeLoss/RNN/MultiRNNCell/Cell1/BasicLSTMCell/Linear/Matrix/Adagrad"
        string_val: "OptimizeLoss/dnn/layer0/fully_connected/bias/Adagrad"
        string_val: "OptimizeLoss/dnn/layer0/fully_connected/weights/Adagrad"
        string_val: "OptimizeLoss/learning_rate"
        string_val: "OptimizeLoss/linear_regression/bias/Adagrad"
        string_val: "OptimizeLoss/linear_regression/mean_squared_error_regressor/sum_of_squares_loss/value/avg"
        string_val: "OptimizeLoss/linear_regression/weights/Adagrad"
        string_val: "RNN/MultiRNNCell/Cell0/BasicLSTMCell/Linear/Bias"
        string_val: "RNN/MultiRNNCell/Cell0/BasicLSTMCell/Linear/Matrix"
        string_val: "RNN/MultiRNNCell/Cell1/BasicLSTMCell/Linear/Bias"
        string_val: "RNN/MultiRNNCell/Cell1/BasicLSTMCell/Linear/Matrix"
        string_val: "dnn/layer0/fully_connected/bias"
        string_val: "dnn/layer0/fully_connected/weights"
        string_val: "global_step"
        string_val: "linear_regression/bias"
        string_val: "linear_regression/weights"
      }
    }
  }
}
node {
  name: "save/save/shapes_and_slices"
  op: "Const"
  attr {
    key: "_output_shapes"
    value {
      list {
        shape {
          dim {
            size: 19
          }
        }
      }
    }
  }
  attr {
    key: "dtype"
    value {
      type: DT_STRING
    }
  }
  attr {
    key: "value"
    value {
      tensor {
        dtype: DT_STRING
        tensor_shape {
          dim {
            size: 19
          }
        }
        string_val: ""
        string_val: ""
        string_val: ""
        string_val: ""
        string_val: ""
        string_val: ""
        string_val: ""
        string_val: ""
        string_val: ""
        string_val: ""
        string_val: ""
        string_val: ""
        string_val: ""
        string_val: ""
        string_val: ""
        string_val: ""
        string_val: ""
        string_val: ""
        string_val: ""
      }
    }
  }
}
node {
  name: "save/save"
  op: "SaveSlices"
  input: "save/ShardedFilename"
  input: "save/save/tensor_names"
  input: "save/save/shapes_and_slices"
  input: "OptimizeLoss/RNN/MultiRNNCell/Cell0/BasicLSTMCell/Linear/Bias/Adagrad"
  input: "OptimizeLoss/RNN/MultiRNNCell/Cell0/BasicLSTMCell/Linear/Matrix/Adagrad"
  input: "OptimizeLoss/RNN/MultiRNNCell/Cell1/BasicLSTMCell/Linear/Bias/Adagrad"
  input: "OptimizeLoss/RNN/MultiRNNCell/Cell1/BasicLSTMCell/Linear/Matrix/Adagrad"
  input: "OptimizeLoss/dnn/layer0/fully_connected/bias/Adagrad"
  input: "OptimizeLoss/dnn/layer0/fully_connected/weights/Adagrad"
  input: "OptimizeLoss/learning_rate"
  input: "OptimizeLoss/linear_regression/bias/Adagrad"
  input: "OptimizeLoss/linear_regression/mean_squared_error_regressor/sum_of_squares_loss/value/avg"
  input: "OptimizeLoss/linear_regression/weights/Adagrad"
  input: "RNN/MultiRNNCell/Cell0/BasicLSTMCell/Linear/Bias"
  input: "RNN/MultiRNNCell/Cell0/BasicLSTMCell/Linear/Matrix"
  input: "RNN/MultiRNNCell/Cell1/BasicLSTMCell/Linear/Bias"
  input: "RNN/MultiRNNCell/Cell1/BasicLSTMCell/Linear/Matrix"
  input: "dnn/layer0/fully_connected/bias"
  input: "dnn/layer0/fully_connected/weights"
  input: "global_step"
  input: "linear_regression/bias"
  input: "linear_regression/weights"
  attr {
    key: "T"
    value {
      list {
        type: DT_FLOAT
        type: DT_FLOAT
        type: DT_FLOAT
        type: DT_FLOAT
        type: DT_FLOAT
        type: DT_FLOAT
        type: DT_FLOAT
        type: DT_FLOAT
        type: DT_FLOAT
        type: DT_FLOAT
        type: DT_FLOAT
        type: DT_FLOAT
        type: DT_FLOAT
        type: DT_FLOAT
        type: DT_FLOAT
        type: DT_FLOAT
        type: DT_INT64
        type: DT_FLOAT
        type: DT_FLOAT
      }
    }
  }
}
node {
  name: "save/control_dependency"
  op: "Identity"
  input: "save/ShardedFilename"
  input: "^save/save"
  attr {
    key: "T"
    value {
      type: DT_STRING
    }
  }
  attr {
    key: "_class"
    value {
      list {
        s: "loc:@save/ShardedFilename"
      }
    }
  }
  attr {
    key: "_output_shapes"
    value {
      list {
        shape {
        }
      }
    }
  }
}
node {
  name: "save/ShardedFilespec"
  op: "ShardedFilespec"
  input: "save/Const"
  input: "save/num_shards"
  input: "^save/control_dependency"
  attr {
    key: "_output_shapes"
    value {
      list {
        shape {
        }
      }
    }
  }
}
node {
  name: "save/restore_slice/tensor_name"
  op: "Const"
  attr {
    key: "_output_shapes"
    value {
      list {
        shape {
        }
      }
    }
  }
  attr {
    key: "dtype"
    value {
      type: DT_STRING
    }
  }
  attr {
    key: "value"
    value {
      tensor {
        dtype: DT_STRING
        tensor_shape {
        }
        string_val: "OptimizeLoss/RNN/MultiRNNCell/Cell0/BasicLSTMCell/Linear/Bias/Adagrad"
      }
    }
  }
}
node {
  name: "save/restore_slice/shape_and_slice"
  op: "Const"
  attr {
    key: "_output_shapes"
    value {
      list {
        shape {
        }
      }
    }
  }
  attr {
    key: "dtype"
    value {
      type: DT_STRING
    }
  }
  attr {
    key: "value"
    value {
      tensor {
        dtype: DT_STRING
        tensor_shape {
        }
        string_val: ""
      }
    }
  }
}
node {
  name: "save/restore_slice"
  op: "RestoreSlice"
  input: "save/Const"
  input: "save/restore_slice/tensor_name"
  input: "save/restore_slice/shape_and_slice"
  attr {
    key: "_output_shapes"
    value {
      list {
        shape {
          unknown_rank: true
        }
      }
    }
  }
  attr {
    key: "dt"
    value {
      type: DT_FLOAT
    }
  }
  attr {
    key: "preferred_shard"
    value {
      i: 0
    }
  }
}
node {
  name: "save/Assign"
  op: "Assign"
  input: "OptimizeLoss/RNN/MultiRNNCell/Cell0/BasicLSTMCell/Linear/Bias/Adagrad"
  input: "save/restore_slice"
  attr {
    key: "T"
    value {
      type: DT_FLOAT
    }
  }
  attr {
    key: "_class"
    value {
      list {
        s: "loc:@RNN/MultiRNNCell/Cell0/BasicLSTMCell/Linear/Bias"
      }
    }
  }
  attr {
    key: "_output_shapes"
    value {
      list {
        shape {
          dim {
            size: 20
          }
        }
      }
    }
  }
  attr {
    key: "use_locking"
    value {
      b: true
    }
  }
  attr {
    key: "validate_shape"
    value {
      b: true
    }
  }
}
node {
  name: "save/restore_slice_1/tensor_name"
  op: "Const"
  attr {
    key: "_output_shapes"
    value {
      list {
        shape {
        }
      }
    }
  }
  attr {
    key: "dtype"
    value {
      type: DT_STRING
    }
  }
  attr {
    key: "value"
    value {
      tensor {
        dtype: DT_STRING
        tensor_shape {
        }
        string_val: "OptimizeLoss/RNN/MultiRNNCell/Cell0/BasicLSTMCell/Linear/Matrix/Adagrad"
      }
    }
  }
}
node {
  name: "save/restore_slice_1/shape_and_slice"
  op: "Const"
  attr {
    key: "_output_shapes"
    value {
      list {
        shape {
        }
      }
    }
  }
  attr {
    key: "dtype"
    value {
      type: DT_STRING
    }
  }
  attr {
    key: "value"
    value {
      tensor {
        dtype: DT_STRING
        tensor_shape {
        }
        string_val: ""
      }
    }
  }
}
node {
  name: "save/restore_slice_1"
  op: "RestoreSlice"
  input: "save/Const"
  input: "save/restore_slice_1/tensor_name"
  input: "save/restore_slice_1/shape_and_slice"
  attr {
    key: "_output_shapes"
    value {
      list {
        shape {
          unknown_rank: true
        }
      }
    }
  }
  attr {
    key: "dt"
    value {
      type: DT_FLOAT
    }
  }
  attr {
    key: "preferred_shard"
    value {
      i: 0
    }
  }
}
node {
  name: "save/Assign_1"
  op: "Assign"
  input: "OptimizeLoss/RNN/MultiRNNCell/Cell0/BasicLSTMCell/Linear/Matrix/Adagrad"
  input: "save/restore_slice_1"
  attr {
    key: "T"
    value {
      type: DT_FLOAT
    }
  }
  attr {
    key: "_class"
    value {
      list {
        s: "loc:@RNN/MultiRNNCell/Cell0/BasicLSTMCell/Linear/Matrix"
      }
    }
  }
  attr {
    key: "_output_shapes"
    value {
      list {
        shape {
          dim {
            size: 7
          }
          dim {
            size: 20
          }
        }
      }
    }
  }
  attr {
    key: "use_locking"
    value {
      b: true
    }
  }
  attr {
    key: "validate_shape"
    value {
      b: true
    }
  }
}
node {
  name: "save/restore_slice_2/tensor_name"
  op: "Const"
  attr {
    key: "_output_shapes"
    value {
      list {
        shape {
        }
      }
    }
  }
  attr {
    key: "dtype"
    value {
      type: DT_STRING
    }
  }
  attr {
    key: "value"
    value {
      tensor {
        dtype: DT_STRING
        tensor_shape {
        }
        string_val: "OptimizeLoss/RNN/MultiRNNCell/Cell1/BasicLSTMCell/Linear/Bias/Adagrad"
      }
    }
  }
}
node {
  name: "save/restore_slice_2/shape_and_slice"
  op: "Const"
  attr {
    key: "_output_shapes"
    value {
      list {
        shape {
        }
      }
    }
  }
  attr {
    key: "dtype"
    value {
      type: DT_STRING
    }
  }
  attr {
    key: "value"
    value {
      tensor {
        dtype: DT_STRING
        tensor_shape {
        }
        string_val: ""
      }
    }
  }
}
node {
  name: "save/restore_slice_2"
  op: "RestoreSlice"
  input: "save/Const"
  input: "save/restore_slice_2/tensor_name"
  input: "save/restore_slice_2/shape_and_slice"
  attr {
    key: "_output_shapes"
    value {
      list {
        shape {
          unknown_rank: true
        }
      }
    }
  }
  attr {
    key: "dt"
    value {
      type: DT_FLOAT
    }
  }
  attr {
    key: "preferred_shard"
    value {
      i: 0
    }
  }
}
node {
  name: "save/Assign_2"
  op: "Assign"
  input: "OptimizeLoss/RNN/MultiRNNCell/Cell1/BasicLSTMCell/Linear/Bias/Adagrad"
  input: "save/restore_slice_2"
  attr {
    key: "T"
    value {
      type: DT_FLOAT
    }
  }
  attr {
    key: "_class"
    value {
      list {
        s: "loc:@RNN/MultiRNNCell/Cell1/BasicLSTMCell/Linear/Bias"
      }
    }
  }
  attr {
    key: "_output_shapes"
    value {
      list {
        shape {
          dim {
            size: 8
          }
        }
      }
    }
  }
  attr {
    key: "use_locking"
    value {
      b: true
    }
  }
  attr {
    key: "validate_shape"
    value {
      b: true
    }
  }
}
node {
  name: "save/restore_slice_3/tensor_name"
  op: "Const"
  attr {
    key: "_output_shapes"
    value {
      list {
        shape {
        }
      }
    }
  }
  attr {
    key: "dtype"
    value {
      type: DT_STRING
    }
  }
  attr {
    key: "value"
    value {
      tensor {
        dtype: DT_STRING
        tensor_shape {
        }
        string_val: "OptimizeLoss/RNN/MultiRNNCell/Cell1/BasicLSTMCell/Linear/Matrix/Adagrad"
      }
    }
  }
}
node {
  name: "save/restore_slice_3/shape_and_slice"
  op: "Const"
  attr {
    key: "_output_shapes"
    value {
      list {
        shape {
        }
      }
    }
  }
  attr {
    key: "dtype"
    value {
      type: DT_STRING
    }
  }
  attr {
    key: "value"
    value {
      tensor {
        dtype: DT_STRING
        tensor_shape {
        }
        string_val: ""
      }
    }
  }
}
node {
  name: "save/restore_slice_3"
  op: "RestoreSlice"
  input: "save/Const"
  input: "save/restore_slice_3/tensor_name"
  input: "save/restore_slice_3/shape_and_slice"
  attr {
    key: "_output_shapes"
    value {
      list {
        shape {
          unknown_rank: true
        }
      }
    }
  }
  attr {
    key: "dt"
    value {
      type: DT_FLOAT
    }
  }
  attr {
    key: "preferred_shard"
    value {
      i: 0
    }
  }
}
node {
  name: "save/Assign_3"
  op: "Assign"
  input: "OptimizeLoss/RNN/MultiRNNCell/Cell1/BasicLSTMCell/Linear/Matrix/Adagrad"
  input: "save/restore_slice_3"
  attr {
    key: "T"
    value {
      type: DT_FLOAT
    }
  }
  attr {
    key: "_class"
    value {
      list {
        s: "loc:@RNN/MultiRNNCell/Cell1/BasicLSTMCell/Linear/Matrix"
      }
    }
  }
  attr {
    key: "_output_shapes"
    value {
      list {
        shape {
          dim {
            size: 7
          }
          dim {
            size: 8
          }
        }
      }
    }
  }
  attr {
    key: "use_locking"
    value {
      b: true
    }
  }
  attr {
    key: "validate_shape"
    value {
      b: true
    }
  }
}
node {
  name: "save/restore_slice_4/tensor_name"
  op: "Const"
  attr {
    key: "_output_shapes"
    value {
      list {
        shape {
        }
      }
    }
  }
  attr {
    key: "dtype"
    value {
      type: DT_STRING
    }
  }
  attr {
    key: "value"
    value {
      tensor {
        dtype: DT_STRING
        tensor_shape {
        }
        string_val: "OptimizeLoss/dnn/layer0/fully_connected/bias/Adagrad"
      }
    }
  }
}
node {
  name: "save/restore_slice_4/shape_and_slice"
  op: "Const"
  attr {
    key: "_output_shapes"
    value {
      list {
        shape {
        }
      }
    }
  }
  attr {
    key: "dtype"
    value {
      type: DT_STRING
    }
  }
  attr {
    key: "value"
    value {
      tensor {
        dtype: DT_STRING
        tensor_shape {
        }
        string_val: ""
      }
    }
  }
}
node {
  name: "save/restore_slice_4"
  op: "RestoreSlice"
  input: "save/Const"
  input: "save/restore_slice_4/tensor_name"
  input: "save/restore_slice_4/shape_and_slice"
  attr {
    key: "_output_shapes"
    value {
      list {
        shape {
          unknown_rank: true
        }
      }
    }
  }
  attr {
    key: "dt"
    value {
      type: DT_FLOAT
    }
  }
  attr {
    key: "preferred_shard"
    value {
      i: 0
    }
  }
}
node {
  name: "save/Assign_4"
  op: "Assign"
  input: "OptimizeLoss/dnn/layer0/fully_connected/bias/Adagrad"
  input: "save/restore_slice_4"
  attr {
    key: "T"
    value {
      type: DT_FLOAT
    }
  }
  attr {
    key: "_class"
    value {
      list {
        s: "loc:@dnn/layer0/fully_connected/bias"
      }
    }
  }
  attr {
    key: "_output_shapes"
    value {
      list {
        shape {
          dim {
            size: 1
          }
        }
      }
    }
  }
  attr {
    key: "use_locking"
    value {
      b: true
    }
  }
  attr {
    key: "validate_shape"
    value {
      b: true
    }
  }
}
node {
  name: "save/restore_slice_5/tensor_name"
  op: "Const"
  attr {
    key: "_output_shapes"
    value {
      list {
        shape {
        }
      }
    }
  }
  attr {
    key: "dtype"
    value {
      type: DT_STRING
    }
  }
  attr {
    key: "value"
    value {
      tensor {
        dtype: DT_STRING
        tensor_shape {
        }
        string_val: "OptimizeLoss/dnn/layer0/fully_connected/weights/Adagrad"
      }
    }
  }
}
node {
  name: "save/restore_slice_5/shape_and_slice"
  op: "Const"
  attr {
    key: "_output_shapes"
    value {
      list {
        shape {
        }
      }
    }
  }
  attr {
    key: "dtype"
    value {
      type: DT_STRING
    }
  }
  attr {
    key: "value"
    value {
      tensor {
        dtype: DT_STRING
        tensor_shape {
        }
        string_val: ""
      }
    }
  }
}
node {
  name: "save/restore_slice_5"
  op: "RestoreSlice"
  input: "save/Const"
  input: "save/restore_slice_5/tensor_name"
  input: "save/restore_slice_5/shape_and_slice"
  attr {
    key: "_output_shapes"
    value {
      list {
        shape {
          unknown_rank: true
        }
      }
    }
  }
  attr {
    key: "dt"
    value {
      type: DT_FLOAT
    }
  }
  attr {
    key: "preferred_shard"
    value {
      i: 0
    }
  }
}
node {
  name: "save/Assign_5"
  op: "Assign"
  input: "OptimizeLoss/dnn/layer0/fully_connected/weights/Adagrad"
  input: "save/restore_slice_5"
  attr {
    key: "T"
    value {
      type: DT_FLOAT
    }
  }
  attr {
    key: "_class"
    value {
      list {
        s: "loc:@dnn/layer0/fully_connected/weights"
      }
    }
  }
  attr {
    key: "_output_shapes"
    value {
      list {
        shape {
          dim {
            size: 2
          }
          dim {
            size: 1
          }
        }
      }
    }
  }
  attr {
    key: "use_locking"
    value {
      b: true
    }
  }
  attr {
    key: "validate_shape"
    value {
      b: true
    }
  }
}
node {
  name: "save/restore_slice_6/tensor_name"
  op: "Const"
  attr {
    key: "_output_shapes"
    value {
      list {
        shape {
        }
      }
    }
  }
  attr {
    key: "dtype"
    value {
      type: DT_STRING
    }
  }
  attr {
    key: "value"
    value {
      tensor {
        dtype: DT_STRING
        tensor_shape {
        }
        string_val: "OptimizeLoss/learning_rate"
      }
    }
  }
}
node {
  name: "save/restore_slice_6/shape_and_slice"
  op: "Const"
  attr {
    key: "_output_shapes"
    value {
      list {
        shape {
        }
      }
    }
  }
  attr {
    key: "dtype"
    value {
      type: DT_STRING
    }
  }
  attr {
    key: "value"
    value {
      tensor {
        dtype: DT_STRING
        tensor_shape {
        }
        string_val: ""
      }
    }
  }
}
node {
  name: "save/restore_slice_6"
  op: "RestoreSlice"
  input: "save/Const"
  input: "save/restore_slice_6/tensor_name"
  input: "save/restore_slice_6/shape_and_slice"
  attr {
    key: "_output_shapes"
    value {
      list {
        shape {
          unknown_rank: true
        }
      }
    }
  }
  attr {
    key: "dt"
    value {
      type: DT_FLOAT
    }
  }
  attr {
    key: "preferred_shard"
    value {
      i: 0
    }
  }
}
node {
  name: "save/Assign_6"
  op: "Assign"
  input: "OptimizeLoss/learning_rate"
  input: "save/restore_slice_6"
  attr {
    key: "T"
    value {
      type: DT_FLOAT
    }
  }
  attr {
    key: "_class"
    value {
      list {
        s: "loc:@OptimizeLoss/learning_rate"
      }
    }
  }
  attr {
    key: "_output_shapes"
    value {
      list {
        shape {
        }
      }
    }
  }
  attr {
    key: "use_locking"
    value {
      b: true
    }
  }
  attr {
    key: "validate_shape"
    value {
      b: true
    }
  }
}
node {
  name: "save/restore_slice_7/tensor_name"
  op: "Const"
  attr {
    key: "_output_shapes"
    value {
      list {
        shape {
        }
      }
    }
  }
  attr {
    key: "dtype"
    value {
      type: DT_STRING
    }
  }
  attr {
    key: "value"
    value {
      tensor {
        dtype: DT_STRING
        tensor_shape {
        }
        string_val: "OptimizeLoss/linear_regression/bias/Adagrad"
      }
    }
  }
}
node {
  name: "save/restore_slice_7/shape_and_slice"
  op: "Const"
  attr {
    key: "_output_shapes"
    value {
      list {
        shape {
        }
      }
    }
  }
  attr {
    key: "dtype"
    value {
      type: DT_STRING
    }
  }
  attr {
    key: "value"
    value {
      tensor {
        dtype: DT_STRING
        tensor_shape {
        }
        string_val: ""
      }
    }
  }
}
node {
  name: "save/restore_slice_7"
  op: "RestoreSlice"
  input: "save/Const"
  input: "save/restore_slice_7/tensor_name"
  input: "save/restore_slice_7/shape_and_slice"
  attr {
    key: "_output_shapes"
    value {
      list {
        shape {
          unknown_rank: true
        }
      }
    }
  }
  attr {
    key: "dt"
    value {
      type: DT_FLOAT
    }
  }
  attr {
    key: "preferred_shard"
    value {
      i: 0
    }
  }
}
node {
  name: "save/Assign_7"
  op: "Assign"
  input: "OptimizeLoss/linear_regression/bias/Adagrad"
  input: "save/restore_slice_7"
  attr {
    key: "T"
    value {
      type: DT_FLOAT
    }
  }
  attr {
    key: "_class"
    value {
      list {
        s: "loc:@linear_regression/bias"
      }
    }
  }
  attr {
    key: "_output_shapes"
    value {
      list {
        shape {
          dim {
            size: 2
          }
        }
      }
    }
  }
  attr {
    key: "use_locking"
    value {
      b: true
    }
  }
  attr {
    key: "validate_shape"
    value {
      b: true
    }
  }
}
node {
  name: "save/restore_slice_8/tensor_name"
  op: "Const"
  attr {
    key: "_output_shapes"
    value {
      list {
        shape {
        }
      }
    }
  }
  attr {
    key: "dtype"
    value {
      type: DT_STRING
    }
  }
  attr {
    key: "value"
    value {
      tensor {
        dtype: DT_STRING
        tensor_shape {
        }
        string_val: "OptimizeLoss/linear_regression/mean_squared_error_regressor/sum_of_squares_loss/value/avg"
      }
    }
  }
}
node {
  name: "save/restore_slice_8/shape_and_slice"
  op: "Const"
  attr {
    key: "_output_shapes"
    value {
      list {
        shape {
        }
      }
    }
  }
  attr {
    key: "dtype"
    value {
      type: DT_STRING
    }
  }
  attr {
    key: "value"
    value {
      tensor {
        dtype: DT_STRING
        tensor_shape {
        }
        string_val: ""
      }
    }
  }
}
node {
  name: "save/restore_slice_8"
  op: "RestoreSlice"
  input: "save/Const"
  input: "save/restore_slice_8/tensor_name"
  input: "save/restore_slice_8/shape_and_slice"
  attr {
    key: "_output_shapes"
    value {
      list {
        shape {
          unknown_rank: true
        }
      }
    }
  }
  attr {
    key: "dt"
    value {
      type: DT_FLOAT
    }
  }
  attr {
    key: "preferred_shard"
    value {
      i: 0
    }
  }
}
node {
  name: "save/Assign_8"
  op: "Assign"
  input: "OptimizeLoss/linear_regression/mean_squared_error_regressor/sum_of_squares_loss/value/avg"
  input: "save/restore_slice_8"
  attr {
    key: "T"
    value {
      type: DT_FLOAT
    }
  }
  attr {
    key: "_class"
    value {
      list {
        s: "loc:@OptimizeLoss/linear_regression/mean_squared_error_regressor/sum_of_squares_loss/value/avg"
      }
    }
  }
  attr {
    key: "_output_shapes"
    value {
      list {
        shape {
        }
      }
    }
  }
  attr {
    key: "use_locking"
    value {
      b: true
    }
  }
  attr {
    key: "validate_shape"
    value {
      b: true
    }
  }
}
node {
  name: "save/restore_slice_9/tensor_name"
  op: "Const"
  attr {
    key: "_output_shapes"
    value {
      list {
        shape {
        }
      }
    }
  }
  attr {
    key: "dtype"
    value {
      type: DT_STRING
    }
  }
  attr {
    key: "value"
    value {
      tensor {
        dtype: DT_STRING
        tensor_shape {
        }
        string_val: "OptimizeLoss/linear_regression/weights/Adagrad"
      }
    }
  }
}
node {
  name: "save/restore_slice_9/shape_and_slice"
  op: "Const"
  attr {
    key: "_output_shapes"
    value {
      list {
        shape {
        }
      }
    }
  }
  attr {
    key: "dtype"
    value {
      type: DT_STRING
    }
  }
  attr {
    key: "value"
    value {
      tensor {
        dtype: DT_STRING
        tensor_shape {
        }
        string_val: ""
      }
    }
  }
}
node {
  name: "save/restore_slice_9"
  op: "RestoreSlice"
  input: "save/Const"
  input: "save/restore_slice_9/tensor_name"
  input: "save/restore_slice_9/shape_and_slice"
  attr {
    key: "_output_shapes"
    value {
      list {
        shape {
          unknown_rank: true
        }
      }
    }
  }
  attr {
    key: "dt"
    value {
      type: DT_FLOAT
    }
  }
  attr {
    key: "preferred_shard"
    value {
      i: 0
    }
  }
}
node {
  name: "save/Assign_9"
  op: "Assign"
  input: "OptimizeLoss/linear_regression/weights/Adagrad"
  input: "save/restore_slice_9"
  attr {
    key: "T"
    value {
      type: DT_FLOAT
    }
  }
  attr {
    key: "_class"
    value {
      list {
        s: "loc:@linear_regression/weights"
      }
    }
  }
  attr {
    key: "_output_shapes"
    value {
      list {
        shape {
          dim {
            size: 1
          }
          dim {
            size: 2
          }
        }
      }
    }
  }
  attr {
    key: "use_locking"
    value {
      b: true
    }
  }
  attr {
    key: "validate_shape"
    value {
      b: true
    }
  }
}
node {
  name: "save/restore_slice_10/tensor_name"
  op: "Const"
  attr {
    key: "_output_shapes"
    value {
      list {
        shape {
        }
      }
    }
  }
  attr {
    key: "dtype"
    value {
      type: DT_STRING
    }
  }
  attr {
    key: "value"
    value {
      tensor {
        dtype: DT_STRING
        tensor_shape {
        }
        string_val: "RNN/MultiRNNCell/Cell0/BasicLSTMCell/Linear/Bias"
      }
    }
  }
}
node {
  name: "save/restore_slice_10/shape_and_slice"
  op: "Const"
  attr {
    key: "_output_shapes"
    value {
      list {
        shape {
        }
      }
    }
  }
  attr {
    key: "dtype"
    value {
      type: DT_STRING
    }
  }
  attr {
    key: "value"
    value {
      tensor {
        dtype: DT_STRING
        tensor_shape {
        }
        string_val: ""
      }
    }
  }
}
node {
  name: "save/restore_slice_10"
  op: "RestoreSlice"
  input: "save/Const"
  input: "save/restore_slice_10/tensor_name"
  input: "save/restore_slice_10/shape_and_slice"
  attr {
    key: "_output_shapes"
    value {
      list {
        shape {
          unknown_rank: true
        }
      }
    }
  }
  attr {
    key: "dt"
    value {
      type: DT_FLOAT
    }
  }
  attr {
    key: "preferred_shard"
    value {
      i: 0
    }
  }
}
node {
  name: "save/Assign_10"
  op: "Assign"
  input: "RNN/MultiRNNCell/Cell0/BasicLSTMCell/Linear/Bias"
  input: "save/restore_slice_10"
  attr {
    key: "T"
    value {
      type: DT_FLOAT
    }
  }
  attr {
    key: "_class"
    value {
      list {
        s: "loc:@RNN/MultiRNNCell/Cell0/BasicLSTMCell/Linear/Bias"
      }
    }
  }
  attr {
    key: "_output_shapes"
    value {
      list {
        shape {
          dim {
            size: 20
          }
        }
      }
    }
  }
  attr {
    key: "use_locking"
    value {
      b: true
    }
  }
  attr {
    key: "validate_shape"
    value {
      b: true
    }
  }
}
node {
  name: "save/restore_slice_11/tensor_name"
  op: "Const"
  attr {
    key: "_output_shapes"
    value {
      list {
        shape {
        }
      }
    }
  }
  attr {
    key: "dtype"
    value {
      type: DT_STRING
    }
  }
  attr {
    key: "value"
    value {
      tensor {
        dtype: DT_STRING
        tensor_shape {
        }
        string_val: "RNN/MultiRNNCell/Cell0/BasicLSTMCell/Linear/Matrix"
      }
    }
  }
}
node {
  name: "save/restore_slice_11/shape_and_slice"
  op: "Const"
  attr {
    key: "_output_shapes"
    value {
      list {
        shape {
        }
      }
    }
  }
  attr {
    key: "dtype"
    value {
      type: DT_STRING
    }
  }
  attr {
    key: "value"
    value {
      tensor {
        dtype: DT_STRING
        tensor_shape {
        }
        string_val: ""
      }
    }
  }
}
node {
  name: "save/restore_slice_11"
  op: "RestoreSlice"
  input: "save/Const"
  input: "save/restore_slice_11/tensor_name"
  input: "save/restore_slice_11/shape_and_slice"
  attr {
    key: "_output_shapes"
    value {
      list {
        shape {
          unknown_rank: true
        }
      }
    }
  }
  attr {
    key: "dt"
    value {
      type: DT_FLOAT
    }
  }
  attr {
    key: "preferred_shard"
    value {
      i: 0
    }
  }
}
node {
  name: "save/Assign_11"
  op: "Assign"
  input: "RNN/MultiRNNCell/Cell0/BasicLSTMCell/Linear/Matrix"
  input: "save/restore_slice_11"
  attr {
    key: "T"
    value {
      type: DT_FLOAT
    }
  }
  attr {
    key: "_class"
    value {
      list {
        s: "loc:@RNN/MultiRNNCell/Cell0/BasicLSTMCell/Linear/Matrix"
      }
    }
  }
  attr {
    key: "_output_shapes"
    value {
      list {
        shape {
          dim {
            size: 7
          }
          dim {
            size: 20
          }
        }
      }
    }
  }
  attr {
    key: "use_locking"
    value {
      b: true
    }
  }
  attr {
    key: "validate_shape"
    value {
      b: true
    }
  }
}
node {
  name: "save/restore_slice_12/tensor_name"
  op: "Const"
  attr {
    key: "_output_shapes"
    value {
      list {
        shape {
        }
      }
    }
  }
  attr {
    key: "dtype"
    value {
      type: DT_STRING
    }
  }
  attr {
    key: "value"
    value {
      tensor {
        dtype: DT_STRING
        tensor_shape {
        }
        string_val: "RNN/MultiRNNCell/Cell1/BasicLSTMCell/Linear/Bias"
      }
    }
  }
}
node {
  name: "save/restore_slice_12/shape_and_slice"
  op: "Const"
  attr {
    key: "_output_shapes"
    value {
      list {
        shape {
        }
      }
    }
  }
  attr {
    key: "dtype"
    value {
      type: DT_STRING
    }
  }
  attr {
    key: "value"
    value {
      tensor {
        dtype: DT_STRING
        tensor_shape {
        }
        string_val: ""
      }
    }
  }
}
node {
  name: "save/restore_slice_12"
  op: "RestoreSlice"
  input: "save/Const"
  input: "save/restore_slice_12/tensor_name"
  input: "save/restore_slice_12/shape_and_slice"
  attr {
    key: "_output_shapes"
    value {
      list {
        shape {
          unknown_rank: true
        }
      }
    }
  }
  attr {
    key: "dt"
    value {
      type: DT_FLOAT
    }
  }
  attr {
    key: "preferred_shard"
    value {
      i: 0
    }
  }
}
node {
  name: "save/Assign_12"
  op: "Assign"
  input: "RNN/MultiRNNCell/Cell1/BasicLSTMCell/Linear/Bias"
  input: "save/restore_slice_12"
  attr {
    key: "T"
    value {
      type: DT_FLOAT
    }
  }
  attr {
    key: "_class"
    value {
      list {
        s: "loc:@RNN/MultiRNNCell/Cell1/BasicLSTMCell/Linear/Bias"
      }
    }
  }
  attr {
    key: "_output_shapes"
    value {
      list {
        shape {
          dim {
            size: 8
          }
        }
      }
    }
  }
  attr {
    key: "use_locking"
    value {
      b: true
    }
  }
  attr {
    key: "validate_shape"
    value {
      b: true
    }
  }
}
node {
  name: "save/restore_slice_13/tensor_name"
  op: "Const"
  attr {
    key: "_output_shapes"
    value {
      list {
        shape {
        }
      }
    }
  }
  attr {
    key: "dtype"
    value {
      type: DT_STRING
    }
  }
  attr {
    key: "value"
    value {
      tensor {
        dtype: DT_STRING
        tensor_shape {
        }
        string_val: "RNN/MultiRNNCell/Cell1/BasicLSTMCell/Linear/Matrix"
      }
    }
  }
}
node {
  name: "save/restore_slice_13/shape_and_slice"
  op: "Const"
  attr {
    key: "_output_shapes"
    value {
      list {
        shape {
        }
      }
    }
  }
  attr {
    key: "dtype"
    value {
      type: DT_STRING
    }
  }
  attr {
    key: "value"
    value {
      tensor {
        dtype: DT_STRING
        tensor_shape {
        }
        string_val: ""
      }
    }
  }
}
node {
  name: "save/restore_slice_13"
  op: "RestoreSlice"
  input: "save/Const"
  input: "save/restore_slice_13/tensor_name"
  input: "save/restore_slice_13/shape_and_slice"
  attr {
    key: "_output_shapes"
    value {
      list {
        shape {
          unknown_rank: true
        }
      }
    }
  }
  attr {
    key: "dt"
    value {
      type: DT_FLOAT
    }
  }
  attr {
    key: "preferred_shard"
    value {
      i: 0
    }
  }
}
node {
  name: "save/Assign_13"
  op: "Assign"
  input: "RNN/MultiRNNCell/Cell1/BasicLSTMCell/Linear/Matrix"
  input: "save/restore_slice_13"
  attr {
    key: "T"
    value {
      type: DT_FLOAT
    }
  }
  attr {
    key: "_class"
    value {
      list {
        s: "loc:@RNN/MultiRNNCell/Cell1/BasicLSTMCell/Linear/Matrix"
      }
    }
  }
  attr {
    key: "_output_shapes"
    value {
      list {
        shape {
          dim {
            size: 7
          }
          dim {
            size: 8
          }
        }
      }
    }
  }
  attr {
    key: "use_locking"
    value {
      b: true
    }
  }
  attr {
    key: "validate_shape"
    value {
      b: true
    }
  }
}
node {
  name: "save/restore_slice_14/tensor_name"
  op: "Const"
  attr {
    key: "_output_shapes"
    value {
      list {
        shape {
        }
      }
    }
  }
  attr {
    key: "dtype"
    value {
      type: DT_STRING
    }
  }
  attr {
    key: "value"
    value {
      tensor {
        dtype: DT_STRING
        tensor_shape {
        }
        string_val: "dnn/layer0/fully_connected/bias"
      }
    }
  }
}
node {
  name: "save/restore_slice_14/shape_and_slice"
  op: "Const"
  attr {
    key: "_output_shapes"
    value {
      list {
        shape {
        }
      }
    }
  }
  attr {
    key: "dtype"
    value {
      type: DT_STRING
    }
  }
  attr {
    key: "value"
    value {
      tensor {
        dtype: DT_STRING
        tensor_shape {
        }
        string_val: ""
      }
    }
  }
}
node {
  name: "save/restore_slice_14"
  op: "RestoreSlice"
  input: "save/Const"
  input: "save/restore_slice_14/tensor_name"
  input: "save/restore_slice_14/shape_and_slice"
  attr {
    key: "_output_shapes"
    value {
      list {
        shape {
          unknown_rank: true
        }
      }
    }
  }
  attr {
    key: "dt"
    value {
      type: DT_FLOAT
    }
  }
  attr {
    key: "preferred_shard"
    value {
      i: 0
    }
  }
}
node {
  name: "save/Assign_14"
  op: "Assign"
  input: "dnn/layer0/fully_connected/bias"
  input: "save/restore_slice_14"
  attr {
    key: "T"
    value {
      type: DT_FLOAT
    }
  }
  attr {
    key: "_class"
    value {
      list {
        s: "loc:@dnn/layer0/fully_connected/bias"
      }
    }
  }
  attr {
    key: "_output_shapes"
    value {
      list {
        shape {
          dim {
            size: 1
          }
        }
      }
    }
  }
  attr {
    key: "use_locking"
    value {
      b: true
    }
  }
  attr {
    key: "validate_shape"
    value {
      b: true
    }
  }
}
node {
  name: "save/restore_slice_15/tensor_name"
  op: "Const"
  attr {
    key: "_output_shapes"
    value {
      list {
        shape {
        }
      }
    }
  }
  attr {
    key: "dtype"
    value {
      type: DT_STRING
    }
  }
  attr {
    key: "value"
    value {
      tensor {
        dtype: DT_STRING
        tensor_shape {
        }
        string_val: "dnn/layer0/fully_connected/weights"
      }
    }
  }
}
node {
  name: "save/restore_slice_15/shape_and_slice"
  op: "Const"
  attr {
    key: "_output_shapes"
    value {
      list {
        shape {
        }
      }
    }
  }
  attr {
    key: "dtype"
    value {
      type: DT_STRING
    }
  }
  attr {
    key: "value"
    value {
      tensor {
        dtype: DT_STRING
        tensor_shape {
        }
        string_val: ""
      }
    }
  }
}
node {
  name: "save/restore_slice_15"
  op: "RestoreSlice"
  input: "save/Const"
  input: "save/restore_slice_15/tensor_name"
  input: "save/restore_slice_15/shape_and_slice"
  attr {
    key: "_output_shapes"
    value {
      list {
        shape {
          unknown_rank: true
        }
      }
    }
  }
  attr {
    key: "dt"
    value {
      type: DT_FLOAT
    }
  }
  attr {
    key: "preferred_shard"
    value {
      i: 0
    }
  }
}
node {
  name: "save/Assign_15"
  op: "Assign"
  input: "dnn/layer0/fully_connected/weights"
  input: "save/restore_slice_15"
  attr {
    key: "T"
    value {
      type: DT_FLOAT
    }
  }
  attr {
    key: "_class"
    value {
      list {
        s: "loc:@dnn/layer0/fully_connected/weights"
      }
    }
  }
  attr {
    key: "_output_shapes"
    value {
      list {
        shape {
          dim {
            size: 2
          }
          dim {
            size: 1
          }
        }
      }
    }
  }
  attr {
    key: "use_locking"
    value {
      b: true
    }
  }
  attr {
    key: "validate_shape"
    value {
      b: true
    }
  }
}
node {
  name: "save/restore_slice_16/tensor_name"
  op: "Const"
  attr {
    key: "_output_shapes"
    value {
      list {
        shape {
        }
      }
    }
  }
  attr {
    key: "dtype"
    value {
      type: DT_STRING
    }
  }
  attr {
    key: "value"
    value {
      tensor {
        dtype: DT_STRING
        tensor_shape {
        }
        string_val: "global_step"
      }
    }
  }
}
node {
  name: "save/restore_slice_16/shape_and_slice"
  op: "Const"
  attr {
    key: "_output_shapes"
    value {
      list {
        shape {
        }
      }
    }
  }
  attr {
    key: "dtype"
    value {
      type: DT_STRING
    }
  }
  attr {
    key: "value"
    value {
      tensor {
        dtype: DT_STRING
        tensor_shape {
        }
        string_val: ""
      }
    }
  }
}
node {
  name: "save/restore_slice_16"
  op: "RestoreSlice"
  input: "save/Const"
  input: "save/restore_slice_16/tensor_name"
  input: "save/restore_slice_16/shape_and_slice"
  attr {
    key: "_output_shapes"
    value {
      list {
        shape {
          unknown_rank: true
        }
      }
    }
  }
  attr {
    key: "dt"
    value {
      type: DT_INT64
    }
  }
  attr {
    key: "preferred_shard"
    value {
      i: 0
    }
  }
}
node {
  name: "save/Assign_16"
  op: "Assign"
  input: "global_step"
  input: "save/restore_slice_16"
  attr {
    key: "T"
    value {
      type: DT_INT64
    }
  }
  attr {
    key: "_class"
    value {
      list {
        s: "loc:@global_step"
      }
    }
  }
  attr {
    key: "_output_shapes"
    value {
      list {
        shape {
        }
      }
    }
  }
  attr {
    key: "use_locking"
    value {
      b: true
    }
  }
  attr {
    key: "validate_shape"
    value {
      b: true
    }
  }
}
node {
  name: "save/restore_slice_17/tensor_name"
  op: "Const"
  attr {
    key: "_output_shapes"
    value {
      list {
        shape {
        }
      }
    }
  }
  attr {
    key: "dtype"
    value {
      type: DT_STRING
    }
  }
  attr {
    key: "value"
    value {
      tensor {
        dtype: DT_STRING
        tensor_shape {
        }
        string_val: "linear_regression/bias"
      }
    }
  }
}
node {
  name: "save/restore_slice_17/shape_and_slice"
  op: "Const"
  attr {
    key: "_output_shapes"
    value {
      list {
        shape {
        }
      }
    }
  }
  attr {
    key: "dtype"
    value {
      type: DT_STRING
    }
  }
  attr {
    key: "value"
    value {
      tensor {
        dtype: DT_STRING
        tensor_shape {
        }
        string_val: ""
      }
    }
  }
}
node {
  name: "save/restore_slice_17"
  op: "RestoreSlice"
  input: "save/Const"
  input: "save/restore_slice_17/tensor_name"
  input: "save/restore_slice_17/shape_and_slice"
  attr {
    key: "_output_shapes"
    value {
      list {
        shape {
          unknown_rank: true
        }
      }
    }
  }
  attr {
    key: "dt"
    value {
      type: DT_FLOAT
    }
  }
  attr {
    key: "preferred_shard"
    value {
      i: 0
    }
  }
}
node {
  name: "save/Assign_17"
  op: "Assign"
  input: "linear_regression/bias"
  input: "save/restore_slice_17"
  attr {
    key: "T"
    value {
      type: DT_FLOAT
    }
  }
  attr {
    key: "_class"
    value {
      list {
        s: "loc:@linear_regression/bias"
      }
    }
  }
  attr {
    key: "_output_shapes"
    value {
      list {
        shape {
          dim {
            size: 2
          }
        }
      }
    }
  }
  attr {
    key: "use_locking"
    value {
      b: true
    }
  }
  attr {
    key: "validate_shape"
    value {
      b: true
    }
  }
}
node {
  name: "save/restore_slice_18/tensor_name"
  op: "Const"
  attr {
    key: "_output_shapes"
    value {
      list {
        shape {
        }
      }
    }
  }
  attr {
    key: "dtype"
    value {
      type: DT_STRING
    }
  }
  attr {
    key: "value"
    value {
      tensor {
        dtype: DT_STRING
        tensor_shape {
        }
        string_val: "linear_regression/weights"
      }
    }
  }
}
node {
  name: "save/restore_slice_18/shape_and_slice"
  op: "Const"
  attr {
    key: "_output_shapes"
    value {
      list {
        shape {
        }
      }
    }
  }
  attr {
    key: "dtype"
    value {
      type: DT_STRING
    }
  }
  attr {
    key: "value"
    value {
      tensor {
        dtype: DT_STRING
        tensor_shape {
        }
        string_val: ""
      }
    }
  }
}
node {
  name: "save/restore_slice_18"
  op: "RestoreSlice"
  input: "save/Const"
  input: "save/restore_slice_18/tensor_name"
  input: "save/restore_slice_18/shape_and_slice"
  attr {
    key: "_output_shapes"
    value {
      list {
        shape {
          unknown_rank: true
        }
      }
    }
  }
  attr {
    key: "dt"
    value {
      type: DT_FLOAT
    }
  }
  attr {
    key: "preferred_shard"
    value {
      i: 0
    }
  }
}
node {
  name: "save/Assign_18"
  op: "Assign"
  input: "linear_regression/weights"
  input: "save/restore_slice_18"
  attr {
    key: "T"
    value {
      type: DT_FLOAT
    }
  }
  attr {
    key: "_class"
    value {
      list {
        s: "loc:@linear_regression/weights"
      }
    }
  }
  attr {
    key: "_output_shapes"
    value {
      list {
        shape {
          dim {
            size: 1
          }
          dim {
            size: 2
          }
        }
      }
    }
  }
  attr {
    key: "use_locking"
    value {
      b: true
    }
  }
  attr {
    key: "validate_shape"
    value {
      b: true
    }
  }
}
node {
  name: "save/restore_shard"
  op: "NoOp"
  input: "^save/Assign"
  input: "^save/Assign_1"
  input: "^save/Assign_2"
  input: "^save/Assign_3"
  input: "^save/Assign_4"
  input: "^save/Assign_5"
  input: "^save/Assign_6"
  input: "^save/Assign_7"
  input: "^save/Assign_8"
  input: "^save/Assign_9"
  input: "^save/Assign_10"
  input: "^save/Assign_11"
  input: "^save/Assign_12"
  input: "^save/Assign_13"
  input: "^save/Assign_14"
  input: "^save/Assign_15"
  input: "^save/Assign_16"
  input: "^save/Assign_17"
  input: "^save/Assign_18"
}
node {
  name: "save/restore_all"
  op: "NoOp"
  input: "^save/restore_shard"
}
versions {
  producer: 10
}
